<?xml version="1.0"?>
<net name="torch-jit-export" version="11">
	<layers>
		<layer id="0" name="x" type="Parameter" version="opset1">
			<data shape="1,256,256,3" element_type="u8" />
			<rt_info>
				<attribute name="fused_names" version="0" value="x" />
				<attribute name="old_api_map_element_type" version="0" value="f16" />
			</rt_info>
			<output>
				<port id="0" precision="U8" names="x">
					<dim>1</dim>
					<dim>256</dim>
					<dim>256</dim>
					<dim>3</dim>
					<rt_info>
						<attribute name="layout" version="0" layout="[N,H,W,C]" />
					</rt_info>
				</port>
			</output>
		</layer>
		<layer id="1" name="Convert_2136" type="Convert" version="opset1">
			<data destination_type="f32" />
			<input>
				<port id="0" precision="U8">
					<dim>1</dim>
					<dim>256</dim>
					<dim>256</dim>
					<dim>3</dim>
				</port>
			</input>
			<output>
				<port id="1" precision="FP32">
					<dim>1</dim>
					<dim>256</dim>
					<dim>256</dim>
					<dim>3</dim>
				</port>
			</output>
		</layer>
		<layer id="2" name="Constant_2137" type="Const" version="opset1">
			<data element_type="i64" shape="" offset="0" size="8" />
			<output>
				<port id="0" precision="I64" />
			</output>
		</layer>
		<layer id="3" name="Constant_2138" type="Const" version="opset1">
			<data element_type="i64" shape="" offset="8" size="8" />
			<output>
				<port id="0" precision="I64" />
			</output>
		</layer>
		<layer id="4" name="Constant_2139" type="Const" version="opset1">
			<data element_type="i64" shape="" offset="8" size="8" />
			<output>
				<port id="0" precision="I64" />
			</output>
		</layer>
		<layer id="5" name="Range_2140" type="Range" version="opset4">
			<data output_type="i32" />
			<input>
				<port id="0" precision="I64" />
				<port id="1" precision="I64" />
				<port id="2" precision="I64" />
			</input>
			<output>
				<port id="3" precision="I32">
					<dim>3</dim>
				</port>
			</output>
		</layer>
		<layer id="6" name="Constant_2141" type="Const" version="opset1">
			<data element_type="i32" shape="1" offset="16" size="4" />
			<output>
				<port id="0" precision="I32">
					<dim>1</dim>
				</port>
			</output>
		</layer>
		<layer id="7" name="Gather_2142" type="Gather" version="opset8">
			<data batch_dims="0" />
			<input>
				<port id="0" precision="FP32">
					<dim>1</dim>
					<dim>256</dim>
					<dim>256</dim>
					<dim>3</dim>
				</port>
				<port id="1" precision="I32">
					<dim>3</dim>
				</port>
				<port id="2" precision="I32">
					<dim>1</dim>
				</port>
			</input>
			<output>
				<port id="3" precision="FP32">
					<dim>1</dim>
					<dim>256</dim>
					<dim>256</dim>
					<dim>3</dim>
				</port>
			</output>
		</layer>
		<layer id="8" name="Constant_2143" type="Const" version="opset1">
			<data element_type="f32" shape="1, 1, 1, 3" offset="20" size="12" />
			<output>
				<port id="0" precision="FP32">
					<dim>1</dim>
					<dim>1</dim>
					<dim>1</dim>
					<dim>3</dim>
				</port>
			</output>
		</layer>
		<layer id="9" name="Subtract_2144" type="Subtract" version="opset1">
			<data auto_broadcast="numpy" />
			<rt_info>
				<attribute name="preprocessing" version="0" />
			</rt_info>
			<input>
				<port id="0" precision="FP32">
					<dim>1</dim>
					<dim>256</dim>
					<dim>256</dim>
					<dim>3</dim>
				</port>
				<port id="1" precision="FP32">
					<dim>1</dim>
					<dim>1</dim>
					<dim>1</dim>
					<dim>3</dim>
				</port>
			</input>
			<output>
				<port id="2" precision="FP32">
					<dim>1</dim>
					<dim>256</dim>
					<dim>256</dim>
					<dim>3</dim>
				</port>
			</output>
		</layer>
		<layer id="10" name="Constant_2145" type="Const" version="opset1">
			<data element_type="f32" shape="1, 1, 1, 3" offset="32" size="12" />
			<output>
				<port id="0" precision="FP32">
					<dim>1</dim>
					<dim>1</dim>
					<dim>1</dim>
					<dim>3</dim>
				</port>
			</output>
		</layer>
		<layer id="11" name="Divide_2146" type="Divide" version="opset1">
			<data auto_broadcast="numpy" m_pythondiv="true" />
			<rt_info>
				<attribute name="preprocessing" version="0" />
			</rt_info>
			<input>
				<port id="0" precision="FP32">
					<dim>1</dim>
					<dim>256</dim>
					<dim>256</dim>
					<dim>3</dim>
				</port>
				<port id="1" precision="FP32">
					<dim>1</dim>
					<dim>1</dim>
					<dim>1</dim>
					<dim>3</dim>
				</port>
			</input>
			<output>
				<port id="2" precision="FP32">
					<dim>1</dim>
					<dim>256</dim>
					<dim>256</dim>
					<dim>3</dim>
				</port>
			</output>
		</layer>
		<layer id="12" name="Constant_2147" type="Const" version="opset1">
			<data element_type="i64" shape="4" offset="44" size="32" />
			<output>
				<port id="0" precision="I64">
					<dim>4</dim>
				</port>
			</output>
		</layer>
		<layer id="13" name="Transpose_2148" type="Transpose" version="opset1">
			<input>
				<port id="0" precision="FP32">
					<dim>1</dim>
					<dim>256</dim>
					<dim>256</dim>
					<dim>3</dim>
				</port>
				<port id="1" precision="I64">
					<dim>4</dim>
				</port>
			</input>
			<output>
				<port id="2" precision="FP32">
					<dim>1</dim>
					<dim>3</dim>
					<dim>256</dim>
					<dim>256</dim>
				</port>
			</output>
		</layer>
		<layer id="14" name="628_compressed" type="Const" version="opset1">
			<data element_type="f16" shape="16, 3, 3, 3" offset="76" size="864" />
			<output>
				<port id="0" precision="FP16">
					<dim>16</dim>
					<dim>3</dim>
					<dim>3</dim>
					<dim>3</dim>
				</port>
			</output>
		</layer>
		<layer id="15" name="628" type="Convert" version="opset1">
			<data destination_type="f32" />
			<rt_info>
				<attribute name="decompression" version="0" />
				<attribute name="fused_names" version="0" value="628" />
			</rt_info>
			<input>
				<port id="0" precision="FP16">
					<dim>16</dim>
					<dim>3</dim>
					<dim>3</dim>
					<dim>3</dim>
				</port>
			</input>
			<output>
				<port id="1" precision="FP32" names="628">
					<dim>16</dim>
					<dim>3</dim>
					<dim>3</dim>
					<dim>3</dim>
				</port>
			</output>
		</layer>
		<layer id="16" name="Convolution_144" type="Convolution" version="opset1">
			<data strides="2, 2" dilations="1, 1" pads_begin="1, 1" pads_end="1, 1" auto_pad="explicit" />
			<rt_info>
				<attribute name="fused_names" version="0" value="Convolution_144" />
			</rt_info>
			<input>
				<port id="0" precision="FP32">
					<dim>1</dim>
					<dim>3</dim>
					<dim>256</dim>
					<dim>256</dim>
				</port>
				<port id="1" precision="FP32">
					<dim>16</dim>
					<dim>3</dim>
					<dim>3</dim>
					<dim>3</dim>
				</port>
			</input>
			<output>
				<port id="2" precision="FP32">
					<dim>1</dim>
					<dim>16</dim>
					<dim>128</dim>
					<dim>128</dim>
				</port>
			</output>
		</layer>
		<layer id="17" name="Reshape_164_compressed" type="Const" version="opset1">
			<data element_type="f16" shape="1, 16, 1, 1" offset="940" size="32" />
			<output>
				<port id="0" precision="FP16">
					<dim>1</dim>
					<dim>16</dim>
					<dim>1</dim>
					<dim>1</dim>
				</port>
			</output>
		</layer>
		<layer id="18" name="Reshape_164" type="Convert" version="opset1">
			<data destination_type="f32" />
			<rt_info>
				<attribute name="decompression" version="0" />
			</rt_info>
			<input>
				<port id="0" precision="FP16">
					<dim>1</dim>
					<dim>16</dim>
					<dim>1</dim>
					<dim>1</dim>
				</port>
			</input>
			<output>
				<port id="1" precision="FP32">
					<dim>1</dim>
					<dim>16</dim>
					<dim>1</dim>
					<dim>1</dim>
				</port>
			</output>
		</layer>
		<layer id="19" name="627" type="Add" version="opset1">
			<data auto_broadcast="numpy" />
			<rt_info>
				<attribute name="fused_names" version="0" value="627, Concat_163, Reshape_164" />
			</rt_info>
			<input>
				<port id="0" precision="FP32">
					<dim>1</dim>
					<dim>16</dim>
					<dim>128</dim>
					<dim>128</dim>
				</port>
				<port id="1" precision="FP32">
					<dim>1</dim>
					<dim>16</dim>
					<dim>1</dim>
					<dim>1</dim>
				</port>
			</input>
			<output>
				<port id="2" precision="FP32" names="627">
					<dim>1</dim>
					<dim>16</dim>
					<dim>128</dim>
					<dim>128</dim>
				</port>
			</output>
		</layer>
		<layer id="20" name="312" type="Swish" version="opset4">
			<rt_info>
				<attribute name="fused_names" version="0" value="311, 312" />
			</rt_info>
			<input>
				<port id="0" precision="FP32">
					<dim>1</dim>
					<dim>16</dim>
					<dim>128</dim>
					<dim>128</dim>
				</port>
			</input>
			<output>
				<port id="1" precision="FP32" names="312">
					<dim>1</dim>
					<dim>16</dim>
					<dim>128</dim>
					<dim>128</dim>
				</port>
			</output>
		</layer>
		<layer id="21" name="Reshape_201_compressed" type="Const" version="opset1">
			<data element_type="f16" shape="16, 1, 1, 3, 3" offset="972" size="288" />
			<output>
				<port id="0" precision="FP16">
					<dim>16</dim>
					<dim>1</dim>
					<dim>1</dim>
					<dim>3</dim>
					<dim>3</dim>
				</port>
			</output>
		</layer>
		<layer id="22" name="Reshape_201" type="Convert" version="opset1">
			<data destination_type="f32" />
			<rt_info>
				<attribute name="decompression" version="0" />
			</rt_info>
			<input>
				<port id="0" precision="FP16">
					<dim>16</dim>
					<dim>1</dim>
					<dim>1</dim>
					<dim>3</dim>
					<dim>3</dim>
				</port>
			</input>
			<output>
				<port id="1" precision="FP32">
					<dim>16</dim>
					<dim>1</dim>
					<dim>1</dim>
					<dim>3</dim>
					<dim>3</dim>
				</port>
			</output>
		</layer>
		<layer id="23" name="GroupConvolution_267" type="GroupConvolution" version="opset1">
			<data strides="1, 1" pads_begin="1, 1" pads_end="1, 1" dilations="1, 1" auto_pad="explicit" />
			<rt_info>
				<attribute name="fused_names" version="0" value="GroupConvolution_267, Reshape_201" />
			</rt_info>
			<input>
				<port id="0" precision="FP32">
					<dim>1</dim>
					<dim>16</dim>
					<dim>128</dim>
					<dim>128</dim>
				</port>
				<port id="1" precision="FP32">
					<dim>16</dim>
					<dim>1</dim>
					<dim>1</dim>
					<dim>3</dim>
					<dim>3</dim>
				</port>
			</input>
			<output>
				<port id="2" precision="FP32">
					<dim>1</dim>
					<dim>16</dim>
					<dim>128</dim>
					<dim>128</dim>
				</port>
			</output>
		</layer>
		<layer id="24" name="Reshape_287_compressed" type="Const" version="opset1">
			<data element_type="f16" shape="1, 16, 1, 1" offset="1260" size="32" />
			<output>
				<port id="0" precision="FP16">
					<dim>1</dim>
					<dim>16</dim>
					<dim>1</dim>
					<dim>1</dim>
				</port>
			</output>
		</layer>
		<layer id="25" name="Reshape_287" type="Convert" version="opset1">
			<data destination_type="f32" />
			<rt_info>
				<attribute name="decompression" version="0" />
			</rt_info>
			<input>
				<port id="0" precision="FP16">
					<dim>1</dim>
					<dim>16</dim>
					<dim>1</dim>
					<dim>1</dim>
				</port>
			</input>
			<output>
				<port id="1" precision="FP32">
					<dim>1</dim>
					<dim>16</dim>
					<dim>1</dim>
					<dim>1</dim>
				</port>
			</output>
		</layer>
		<layer id="26" name="630" type="Add" version="opset1">
			<data auto_broadcast="numpy" />
			<rt_info>
				<attribute name="fused_names" version="0" value="630, Concat_286, Reshape_287" />
			</rt_info>
			<input>
				<port id="0" precision="FP32">
					<dim>1</dim>
					<dim>16</dim>
					<dim>128</dim>
					<dim>128</dim>
				</port>
				<port id="1" precision="FP32">
					<dim>1</dim>
					<dim>16</dim>
					<dim>1</dim>
					<dim>1</dim>
				</port>
			</input>
			<output>
				<port id="2" precision="FP32" names="630">
					<dim>1</dim>
					<dim>16</dim>
					<dim>128</dim>
					<dim>128</dim>
				</port>
			</output>
		</layer>
		<layer id="27" name="316" type="Swish" version="opset4">
			<rt_info>
				<attribute name="fused_names" version="0" value="315, 316" />
			</rt_info>
			<input>
				<port id="0" precision="FP32">
					<dim>1</dim>
					<dim>16</dim>
					<dim>128</dim>
					<dim>128</dim>
				</port>
			</input>
			<output>
				<port id="1" precision="FP32" names="316">
					<dim>1</dim>
					<dim>16</dim>
					<dim>128</dim>
					<dim>128</dim>
				</port>
			</output>
		</layer>
		<layer id="28" name="Range_324" type="Const" version="opset1">
			<data element_type="i64" shape="2" offset="1292" size="16" />
			<output>
				<port id="0" precision="I64">
					<dim>2</dim>
				</port>
			</output>
		</layer>
		<layer id="29" name="317" type="ReduceMean" version="opset1">
			<data keep_dims="true" />
			<rt_info>
				<attribute name="fused_names" version="0" value="317, Range_324" />
			</rt_info>
			<input>
				<port id="0" precision="FP32">
					<dim>1</dim>
					<dim>16</dim>
					<dim>128</dim>
					<dim>128</dim>
				</port>
				<port id="1" precision="I64">
					<dim>2</dim>
				</port>
			</input>
			<output>
				<port id="2" precision="FP32" names="317">
					<dim>1</dim>
					<dim>16</dim>
					<dim>1</dim>
					<dim>1</dim>
				</port>
			</output>
		</layer>
		<layer id="30" name="blocks.0.0.se.conv_reduce.weight_compressed" type="Const" version="opset1">
			<data element_type="f16" shape="8, 16, 1, 1" offset="1308" size="256" />
			<output>
				<port id="0" precision="FP16">
					<dim>8</dim>
					<dim>16</dim>
					<dim>1</dim>
					<dim>1</dim>
				</port>
			</output>
		</layer>
		<layer id="31" name="blocks.0.0.se.conv_reduce.weight" type="Convert" version="opset1">
			<data destination_type="f32" />
			<rt_info>
				<attribute name="decompression" version="0" />
				<attribute name="fused_names" version="0" value="blocks.0.0.se.conv_reduce.weight" />
			</rt_info>
			<input>
				<port id="0" precision="FP16">
					<dim>8</dim>
					<dim>16</dim>
					<dim>1</dim>
					<dim>1</dim>
				</port>
			</input>
			<output>
				<port id="1" precision="FP32" names="blocks.0.0.se.conv_reduce.weight">
					<dim>8</dim>
					<dim>16</dim>
					<dim>1</dim>
					<dim>1</dim>
				</port>
			</output>
		</layer>
		<layer id="32" name="Convolution_349" type="Convolution" version="opset1">
			<data strides="1, 1" dilations="1, 1" pads_begin="0, 0" pads_end="0, 0" auto_pad="explicit" />
			<rt_info>
				<attribute name="fused_names" version="0" value="Convolution_349" />
			</rt_info>
			<input>
				<port id="0" precision="FP32">
					<dim>1</dim>
					<dim>16</dim>
					<dim>1</dim>
					<dim>1</dim>
				</port>
				<port id="1" precision="FP32">
					<dim>8</dim>
					<dim>16</dim>
					<dim>1</dim>
					<dim>1</dim>
				</port>
			</input>
			<output>
				<port id="2" precision="FP32">
					<dim>1</dim>
					<dim>8</dim>
					<dim>1</dim>
					<dim>1</dim>
				</port>
			</output>
		</layer>
		<layer id="33" name="Reshape_369_compressed" type="Const" version="opset1">
			<data element_type="f16" shape="1, 8, 1, 1" offset="1564" size="16" />
			<output>
				<port id="0" precision="FP16">
					<dim>1</dim>
					<dim>8</dim>
					<dim>1</dim>
					<dim>1</dim>
				</port>
			</output>
		</layer>
		<layer id="34" name="Reshape_369" type="Convert" version="opset1">
			<data destination_type="f32" />
			<rt_info>
				<attribute name="decompression" version="0" />
			</rt_info>
			<input>
				<port id="0" precision="FP16">
					<dim>1</dim>
					<dim>8</dim>
					<dim>1</dim>
					<dim>1</dim>
				</port>
			</input>
			<output>
				<port id="1" precision="FP32">
					<dim>1</dim>
					<dim>8</dim>
					<dim>1</dim>
					<dim>1</dim>
				</port>
			</output>
		</layer>
		<layer id="35" name="318" type="Add" version="opset1">
			<data auto_broadcast="numpy" />
			<rt_info>
				<attribute name="fused_names" version="0" value="318, Concat_368, Reshape_369" />
			</rt_info>
			<input>
				<port id="0" precision="FP32">
					<dim>1</dim>
					<dim>8</dim>
					<dim>1</dim>
					<dim>1</dim>
				</port>
				<port id="1" precision="FP32">
					<dim>1</dim>
					<dim>8</dim>
					<dim>1</dim>
					<dim>1</dim>
				</port>
			</input>
			<output>
				<port id="2" precision="FP32" names="318">
					<dim>1</dim>
					<dim>8</dim>
					<dim>1</dim>
					<dim>1</dim>
				</port>
			</output>
		</layer>
		<layer id="36" name="319" type="ReLU" version="opset1">
			<rt_info>
				<attribute name="fused_names" version="0" value="319" />
			</rt_info>
			<input>
				<port id="0" precision="FP32">
					<dim>1</dim>
					<dim>8</dim>
					<dim>1</dim>
					<dim>1</dim>
				</port>
			</input>
			<output>
				<port id="1" precision="FP32" names="319">
					<dim>1</dim>
					<dim>8</dim>
					<dim>1</dim>
					<dim>1</dim>
				</port>
			</output>
		</layer>
		<layer id="37" name="blocks.0.0.se.conv_expand.weight_compressed" type="Const" version="opset1">
			<data element_type="f16" shape="16, 8, 1, 1" offset="1580" size="256" />
			<output>
				<port id="0" precision="FP16">
					<dim>16</dim>
					<dim>8</dim>
					<dim>1</dim>
					<dim>1</dim>
				</port>
			</output>
		</layer>
		<layer id="38" name="blocks.0.0.se.conv_expand.weight" type="Convert" version="opset1">
			<data destination_type="f32" />
			<rt_info>
				<attribute name="decompression" version="0" />
				<attribute name="fused_names" version="0" value="blocks.0.0.se.conv_expand.weight" />
			</rt_info>
			<input>
				<port id="0" precision="FP16">
					<dim>16</dim>
					<dim>8</dim>
					<dim>1</dim>
					<dim>1</dim>
				</port>
			</input>
			<output>
				<port id="1" precision="FP32" names="blocks.0.0.se.conv_expand.weight">
					<dim>16</dim>
					<dim>8</dim>
					<dim>1</dim>
					<dim>1</dim>
				</port>
			</output>
		</layer>
		<layer id="39" name="Convolution_398" type="Convolution" version="opset1">
			<data strides="1, 1" dilations="1, 1" pads_begin="0, 0" pads_end="0, 0" auto_pad="explicit" />
			<rt_info>
				<attribute name="fused_names" version="0" value="Convolution_398" />
			</rt_info>
			<input>
				<port id="0" precision="FP32">
					<dim>1</dim>
					<dim>8</dim>
					<dim>1</dim>
					<dim>1</dim>
				</port>
				<port id="1" precision="FP32">
					<dim>16</dim>
					<dim>8</dim>
					<dim>1</dim>
					<dim>1</dim>
				</port>
			</input>
			<output>
				<port id="2" precision="FP32">
					<dim>1</dim>
					<dim>16</dim>
					<dim>1</dim>
					<dim>1</dim>
				</port>
			</output>
		</layer>
		<layer id="40" name="Reshape_418_compressed" type="Const" version="opset1">
			<data element_type="f16" shape="1, 16, 1, 1" offset="1836" size="32" />
			<output>
				<port id="0" precision="FP16">
					<dim>1</dim>
					<dim>16</dim>
					<dim>1</dim>
					<dim>1</dim>
				</port>
			</output>
		</layer>
		<layer id="41" name="Reshape_418" type="Convert" version="opset1">
			<data destination_type="f32" />
			<rt_info>
				<attribute name="decompression" version="0" />
			</rt_info>
			<input>
				<port id="0" precision="FP16">
					<dim>1</dim>
					<dim>16</dim>
					<dim>1</dim>
					<dim>1</dim>
				</port>
			</input>
			<output>
				<port id="1" precision="FP32">
					<dim>1</dim>
					<dim>16</dim>
					<dim>1</dim>
					<dim>1</dim>
				</port>
			</output>
		</layer>
		<layer id="42" name="320" type="Add" version="opset1">
			<data auto_broadcast="numpy" />
			<rt_info>
				<attribute name="fused_names" version="0" value="320, Concat_417, Reshape_418" />
			</rt_info>
			<input>
				<port id="0" precision="FP32">
					<dim>1</dim>
					<dim>16</dim>
					<dim>1</dim>
					<dim>1</dim>
				</port>
				<port id="1" precision="FP32">
					<dim>1</dim>
					<dim>16</dim>
					<dim>1</dim>
					<dim>1</dim>
				</port>
			</input>
			<output>
				<port id="2" precision="FP32" names="320">
					<dim>1</dim>
					<dim>16</dim>
					<dim>1</dim>
					<dim>1</dim>
				</port>
			</output>
		</layer>
		<layer id="43" name="327" type="HSigmoid" version="opset5">
			<rt_info>
				<attribute name="fused_names" version="0" value="322, 325, 327, Maximum_447" />
			</rt_info>
			<input>
				<port id="0" precision="FP32">
					<dim>1</dim>
					<dim>16</dim>
					<dim>1</dim>
					<dim>1</dim>
				</port>
			</input>
			<output>
				<port id="1" precision="FP32" names="327">
					<dim>1</dim>
					<dim>16</dim>
					<dim>1</dim>
					<dim>1</dim>
				</port>
			</output>
		</layer>
		<layer id="44" name="328" type="Multiply" version="opset1">
			<data auto_broadcast="numpy" />
			<rt_info>
				<attribute name="fused_names" version="0" value="328" />
			</rt_info>
			<input>
				<port id="0" precision="FP32">
					<dim>1</dim>
					<dim>16</dim>
					<dim>128</dim>
					<dim>128</dim>
				</port>
				<port id="1" precision="FP32">
					<dim>1</dim>
					<dim>16</dim>
					<dim>1</dim>
					<dim>1</dim>
				</port>
			</input>
			<output>
				<port id="2" precision="FP32" names="328">
					<dim>1</dim>
					<dim>16</dim>
					<dim>128</dim>
					<dim>128</dim>
				</port>
			</output>
		</layer>
		<layer id="45" name="634_compressed" type="Const" version="opset1">
			<data element_type="f16" shape="16, 16, 1, 1" offset="1868" size="512" />
			<output>
				<port id="0" precision="FP16">
					<dim>16</dim>
					<dim>16</dim>
					<dim>1</dim>
					<dim>1</dim>
				</port>
			</output>
		</layer>
		<layer id="46" name="634" type="Convert" version="opset1">
			<data destination_type="f32" />
			<rt_info>
				<attribute name="decompression" version="0" />
				<attribute name="fused_names" version="0" value="634" />
			</rt_info>
			<input>
				<port id="0" precision="FP16">
					<dim>16</dim>
					<dim>16</dim>
					<dim>1</dim>
					<dim>1</dim>
				</port>
			</input>
			<output>
				<port id="1" precision="FP32" names="634">
					<dim>16</dim>
					<dim>16</dim>
					<dim>1</dim>
					<dim>1</dim>
				</port>
			</output>
		</layer>
		<layer id="47" name="Convolution_451" type="Convolution" version="opset1">
			<data strides="1, 1" dilations="1, 1" pads_begin="0, 0" pads_end="0, 0" auto_pad="explicit" />
			<rt_info>
				<attribute name="fused_names" version="0" value="Convolution_451" />
			</rt_info>
			<input>
				<port id="0" precision="FP32">
					<dim>1</dim>
					<dim>16</dim>
					<dim>128</dim>
					<dim>128</dim>
				</port>
				<port id="1" precision="FP32">
					<dim>16</dim>
					<dim>16</dim>
					<dim>1</dim>
					<dim>1</dim>
				</port>
			</input>
			<output>
				<port id="2" precision="FP32">
					<dim>1</dim>
					<dim>16</dim>
					<dim>128</dim>
					<dim>128</dim>
				</port>
			</output>
		</layer>
		<layer id="48" name="Reshape_471_compressed" type="Const" version="opset1">
			<data element_type="f16" shape="1, 16, 1, 1" offset="2380" size="32" />
			<output>
				<port id="0" precision="FP16">
					<dim>1</dim>
					<dim>16</dim>
					<dim>1</dim>
					<dim>1</dim>
				</port>
			</output>
		</layer>
		<layer id="49" name="Reshape_471" type="Convert" version="opset1">
			<data destination_type="f32" />
			<rt_info>
				<attribute name="decompression" version="0" />
			</rt_info>
			<input>
				<port id="0" precision="FP16">
					<dim>1</dim>
					<dim>16</dim>
					<dim>1</dim>
					<dim>1</dim>
				</port>
			</input>
			<output>
				<port id="1" precision="FP32">
					<dim>1</dim>
					<dim>16</dim>
					<dim>1</dim>
					<dim>1</dim>
				</port>
			</output>
		</layer>
		<layer id="50" name="633" type="Add" version="opset1">
			<data auto_broadcast="numpy" />
			<rt_info>
				<attribute name="fused_names" version="0" value="633, Concat_470, Reshape_471" />
			</rt_info>
			<input>
				<port id="0" precision="FP32">
					<dim>1</dim>
					<dim>16</dim>
					<dim>128</dim>
					<dim>128</dim>
				</port>
				<port id="1" precision="FP32">
					<dim>1</dim>
					<dim>16</dim>
					<dim>1</dim>
					<dim>1</dim>
				</port>
			</input>
			<output>
				<port id="2" precision="FP32" names="633">
					<dim>1</dim>
					<dim>16</dim>
					<dim>128</dim>
					<dim>128</dim>
				</port>
			</output>
		</layer>
		<layer id="51" name="331" type="Add" version="opset1">
			<data auto_broadcast="numpy" />
			<rt_info>
				<attribute name="fused_names" version="0" value="331" />
			</rt_info>
			<input>
				<port id="0" precision="FP32">
					<dim>1</dim>
					<dim>16</dim>
					<dim>128</dim>
					<dim>128</dim>
				</port>
				<port id="1" precision="FP32">
					<dim>1</dim>
					<dim>16</dim>
					<dim>128</dim>
					<dim>128</dim>
				</port>
			</input>
			<output>
				<port id="2" precision="FP32" names="331">
					<dim>1</dim>
					<dim>16</dim>
					<dim>128</dim>
					<dim>128</dim>
				</port>
			</output>
		</layer>
		<layer id="52" name="637_compressed" type="Const" version="opset1">
			<data element_type="f16" shape="64, 16, 1, 1" offset="2412" size="2048" />
			<output>
				<port id="0" precision="FP16">
					<dim>64</dim>
					<dim>16</dim>
					<dim>1</dim>
					<dim>1</dim>
				</port>
			</output>
		</layer>
		<layer id="53" name="637" type="Convert" version="opset1">
			<data destination_type="f32" />
			<rt_info>
				<attribute name="decompression" version="0" />
				<attribute name="fused_names" version="0" value="637" />
			</rt_info>
			<input>
				<port id="0" precision="FP16">
					<dim>64</dim>
					<dim>16</dim>
					<dim>1</dim>
					<dim>1</dim>
				</port>
			</input>
			<output>
				<port id="1" precision="FP32" names="637">
					<dim>64</dim>
					<dim>16</dim>
					<dim>1</dim>
					<dim>1</dim>
				</port>
			</output>
		</layer>
		<layer id="54" name="Convolution_500" type="Convolution" version="opset1">
			<data strides="1, 1" dilations="1, 1" pads_begin="0, 0" pads_end="0, 0" auto_pad="explicit" />
			<rt_info>
				<attribute name="fused_names" version="0" value="Convolution_500" />
			</rt_info>
			<input>
				<port id="0" precision="FP32">
					<dim>1</dim>
					<dim>16</dim>
					<dim>128</dim>
					<dim>128</dim>
				</port>
				<port id="1" precision="FP32">
					<dim>64</dim>
					<dim>16</dim>
					<dim>1</dim>
					<dim>1</dim>
				</port>
			</input>
			<output>
				<port id="2" precision="FP32">
					<dim>1</dim>
					<dim>64</dim>
					<dim>128</dim>
					<dim>128</dim>
				</port>
			</output>
		</layer>
		<layer id="55" name="Reshape_520_compressed" type="Const" version="opset1">
			<data element_type="f16" shape="1, 64, 1, 1" offset="4460" size="128" />
			<output>
				<port id="0" precision="FP16">
					<dim>1</dim>
					<dim>64</dim>
					<dim>1</dim>
					<dim>1</dim>
				</port>
			</output>
		</layer>
		<layer id="56" name="Reshape_520" type="Convert" version="opset1">
			<data destination_type="f32" />
			<rt_info>
				<attribute name="decompression" version="0" />
			</rt_info>
			<input>
				<port id="0" precision="FP16">
					<dim>1</dim>
					<dim>64</dim>
					<dim>1</dim>
					<dim>1</dim>
				</port>
			</input>
			<output>
				<port id="1" precision="FP32">
					<dim>1</dim>
					<dim>64</dim>
					<dim>1</dim>
					<dim>1</dim>
				</port>
			</output>
		</layer>
		<layer id="57" name="636" type="Add" version="opset1">
			<data auto_broadcast="numpy" />
			<rt_info>
				<attribute name="fused_names" version="0" value="636, Concat_519, Reshape_520" />
			</rt_info>
			<input>
				<port id="0" precision="FP32">
					<dim>1</dim>
					<dim>64</dim>
					<dim>128</dim>
					<dim>128</dim>
				</port>
				<port id="1" precision="FP32">
					<dim>1</dim>
					<dim>64</dim>
					<dim>1</dim>
					<dim>1</dim>
				</port>
			</input>
			<output>
				<port id="2" precision="FP32" names="636">
					<dim>1</dim>
					<dim>64</dim>
					<dim>128</dim>
					<dim>128</dim>
				</port>
			</output>
		</layer>
		<layer id="58" name="335" type="Swish" version="opset4">
			<rt_info>
				<attribute name="fused_names" version="0" value="334, 335" />
			</rt_info>
			<input>
				<port id="0" precision="FP32">
					<dim>1</dim>
					<dim>64</dim>
					<dim>128</dim>
					<dim>128</dim>
				</port>
			</input>
			<output>
				<port id="1" precision="FP32" names="335">
					<dim>1</dim>
					<dim>64</dim>
					<dim>128</dim>
					<dim>128</dim>
				</port>
			</output>
		</layer>
		<layer id="59" name="Reshape_557_compressed" type="Const" version="opset1">
			<data element_type="f16" shape="64, 1, 1, 7, 7" offset="4588" size="6272" />
			<output>
				<port id="0" precision="FP16">
					<dim>64</dim>
					<dim>1</dim>
					<dim>1</dim>
					<dim>7</dim>
					<dim>7</dim>
				</port>
			</output>
		</layer>
		<layer id="60" name="Reshape_557" type="Convert" version="opset1">
			<data destination_type="f32" />
			<rt_info>
				<attribute name="decompression" version="0" />
			</rt_info>
			<input>
				<port id="0" precision="FP16">
					<dim>64</dim>
					<dim>1</dim>
					<dim>1</dim>
					<dim>7</dim>
					<dim>7</dim>
				</port>
			</input>
			<output>
				<port id="1" precision="FP32">
					<dim>64</dim>
					<dim>1</dim>
					<dim>1</dim>
					<dim>7</dim>
					<dim>7</dim>
				</port>
			</output>
		</layer>
		<layer id="61" name="GroupConvolution_623" type="GroupConvolution" version="opset1">
			<data strides="2, 2" pads_begin="3, 3" pads_end="3, 3" dilations="1, 1" auto_pad="explicit" />
			<rt_info>
				<attribute name="fused_names" version="0" value="GroupConvolution_623, Reshape_557" />
			</rt_info>
			<input>
				<port id="0" precision="FP32">
					<dim>1</dim>
					<dim>64</dim>
					<dim>128</dim>
					<dim>128</dim>
				</port>
				<port id="1" precision="FP32">
					<dim>64</dim>
					<dim>1</dim>
					<dim>1</dim>
					<dim>7</dim>
					<dim>7</dim>
				</port>
			</input>
			<output>
				<port id="2" precision="FP32">
					<dim>1</dim>
					<dim>64</dim>
					<dim>64</dim>
					<dim>64</dim>
				</port>
			</output>
		</layer>
		<layer id="62" name="Reshape_643_compressed" type="Const" version="opset1">
			<data element_type="f16" shape="1, 64, 1, 1" offset="10860" size="128" />
			<output>
				<port id="0" precision="FP16">
					<dim>1</dim>
					<dim>64</dim>
					<dim>1</dim>
					<dim>1</dim>
				</port>
			</output>
		</layer>
		<layer id="63" name="Reshape_643" type="Convert" version="opset1">
			<data destination_type="f32" />
			<rt_info>
				<attribute name="decompression" version="0" />
			</rt_info>
			<input>
				<port id="0" precision="FP16">
					<dim>1</dim>
					<dim>64</dim>
					<dim>1</dim>
					<dim>1</dim>
				</port>
			</input>
			<output>
				<port id="1" precision="FP32">
					<dim>1</dim>
					<dim>64</dim>
					<dim>1</dim>
					<dim>1</dim>
				</port>
			</output>
		</layer>
		<layer id="64" name="639" type="Add" version="opset1">
			<data auto_broadcast="numpy" />
			<rt_info>
				<attribute name="fused_names" version="0" value="639, Concat_642, Reshape_643" />
			</rt_info>
			<input>
				<port id="0" precision="FP32">
					<dim>1</dim>
					<dim>64</dim>
					<dim>64</dim>
					<dim>64</dim>
				</port>
				<port id="1" precision="FP32">
					<dim>1</dim>
					<dim>64</dim>
					<dim>1</dim>
					<dim>1</dim>
				</port>
			</input>
			<output>
				<port id="2" precision="FP32" names="639">
					<dim>1</dim>
					<dim>64</dim>
					<dim>64</dim>
					<dim>64</dim>
				</port>
			</output>
		</layer>
		<layer id="65" name="339" type="Swish" version="opset4">
			<rt_info>
				<attribute name="fused_names" version="0" value="338, 339" />
			</rt_info>
			<input>
				<port id="0" precision="FP32">
					<dim>1</dim>
					<dim>64</dim>
					<dim>64</dim>
					<dim>64</dim>
				</port>
			</input>
			<output>
				<port id="1" precision="FP32" names="339">
					<dim>1</dim>
					<dim>64</dim>
					<dim>64</dim>
					<dim>64</dim>
				</port>
			</output>
		</layer>
		<layer id="66" name="Range_680" type="Const" version="opset1">
			<data element_type="i64" shape="2" offset="1292" size="16" />
			<output>
				<port id="0" precision="I64">
					<dim>2</dim>
				</port>
			</output>
		</layer>
		<layer id="67" name="340" type="ReduceMean" version="opset1">
			<data keep_dims="true" />
			<rt_info>
				<attribute name="fused_names" version="0" value="340, Range_680" />
			</rt_info>
			<input>
				<port id="0" precision="FP32">
					<dim>1</dim>
					<dim>64</dim>
					<dim>64</dim>
					<dim>64</dim>
				</port>
				<port id="1" precision="I64">
					<dim>2</dim>
				</port>
			</input>
			<output>
				<port id="2" precision="FP32" names="340">
					<dim>1</dim>
					<dim>64</dim>
					<dim>1</dim>
					<dim>1</dim>
				</port>
			</output>
		</layer>
		<layer id="68" name="blocks.1.0.se.conv_reduce.weight_compressed" type="Const" version="opset1">
			<data element_type="f16" shape="16, 64, 1, 1" offset="10988" size="2048" />
			<output>
				<port id="0" precision="FP16">
					<dim>16</dim>
					<dim>64</dim>
					<dim>1</dim>
					<dim>1</dim>
				</port>
			</output>
		</layer>
		<layer id="69" name="blocks.1.0.se.conv_reduce.weight" type="Convert" version="opset1">
			<data destination_type="f32" />
			<rt_info>
				<attribute name="decompression" version="0" />
				<attribute name="fused_names" version="0" value="blocks.1.0.se.conv_reduce.weight" />
			</rt_info>
			<input>
				<port id="0" precision="FP16">
					<dim>16</dim>
					<dim>64</dim>
					<dim>1</dim>
					<dim>1</dim>
				</port>
			</input>
			<output>
				<port id="1" precision="FP32" names="blocks.1.0.se.conv_reduce.weight">
					<dim>16</dim>
					<dim>64</dim>
					<dim>1</dim>
					<dim>1</dim>
				</port>
			</output>
		</layer>
		<layer id="70" name="Convolution_705" type="Convolution" version="opset1">
			<data strides="1, 1" dilations="1, 1" pads_begin="0, 0" pads_end="0, 0" auto_pad="explicit" />
			<rt_info>
				<attribute name="fused_names" version="0" value="Convolution_705" />
			</rt_info>
			<input>
				<port id="0" precision="FP32">
					<dim>1</dim>
					<dim>64</dim>
					<dim>1</dim>
					<dim>1</dim>
				</port>
				<port id="1" precision="FP32">
					<dim>16</dim>
					<dim>64</dim>
					<dim>1</dim>
					<dim>1</dim>
				</port>
			</input>
			<output>
				<port id="2" precision="FP32">
					<dim>1</dim>
					<dim>16</dim>
					<dim>1</dim>
					<dim>1</dim>
				</port>
			</output>
		</layer>
		<layer id="71" name="Reshape_725_compressed" type="Const" version="opset1">
			<data element_type="f16" shape="1, 16, 1, 1" offset="13036" size="32" />
			<output>
				<port id="0" precision="FP16">
					<dim>1</dim>
					<dim>16</dim>
					<dim>1</dim>
					<dim>1</dim>
				</port>
			</output>
		</layer>
		<layer id="72" name="Reshape_725" type="Convert" version="opset1">
			<data destination_type="f32" />
			<rt_info>
				<attribute name="decompression" version="0" />
			</rt_info>
			<input>
				<port id="0" precision="FP16">
					<dim>1</dim>
					<dim>16</dim>
					<dim>1</dim>
					<dim>1</dim>
				</port>
			</input>
			<output>
				<port id="1" precision="FP32">
					<dim>1</dim>
					<dim>16</dim>
					<dim>1</dim>
					<dim>1</dim>
				</port>
			</output>
		</layer>
		<layer id="73" name="341" type="Add" version="opset1">
			<data auto_broadcast="numpy" />
			<rt_info>
				<attribute name="fused_names" version="0" value="341, Concat_724, Reshape_725" />
			</rt_info>
			<input>
				<port id="0" precision="FP32">
					<dim>1</dim>
					<dim>16</dim>
					<dim>1</dim>
					<dim>1</dim>
				</port>
				<port id="1" precision="FP32">
					<dim>1</dim>
					<dim>16</dim>
					<dim>1</dim>
					<dim>1</dim>
				</port>
			</input>
			<output>
				<port id="2" precision="FP32" names="341">
					<dim>1</dim>
					<dim>16</dim>
					<dim>1</dim>
					<dim>1</dim>
				</port>
			</output>
		</layer>
		<layer id="74" name="342" type="ReLU" version="opset1">
			<rt_info>
				<attribute name="fused_names" version="0" value="342" />
			</rt_info>
			<input>
				<port id="0" precision="FP32">
					<dim>1</dim>
					<dim>16</dim>
					<dim>1</dim>
					<dim>1</dim>
				</port>
			</input>
			<output>
				<port id="1" precision="FP32" names="342">
					<dim>1</dim>
					<dim>16</dim>
					<dim>1</dim>
					<dim>1</dim>
				</port>
			</output>
		</layer>
		<layer id="75" name="blocks.1.0.se.conv_expand.weight_compressed" type="Const" version="opset1">
			<data element_type="f16" shape="64, 16, 1, 1" offset="13068" size="2048" />
			<output>
				<port id="0" precision="FP16">
					<dim>64</dim>
					<dim>16</dim>
					<dim>1</dim>
					<dim>1</dim>
				</port>
			</output>
		</layer>
		<layer id="76" name="blocks.1.0.se.conv_expand.weight" type="Convert" version="opset1">
			<data destination_type="f32" />
			<rt_info>
				<attribute name="decompression" version="0" />
				<attribute name="fused_names" version="0" value="blocks.1.0.se.conv_expand.weight" />
			</rt_info>
			<input>
				<port id="0" precision="FP16">
					<dim>64</dim>
					<dim>16</dim>
					<dim>1</dim>
					<dim>1</dim>
				</port>
			</input>
			<output>
				<port id="1" precision="FP32" names="blocks.1.0.se.conv_expand.weight">
					<dim>64</dim>
					<dim>16</dim>
					<dim>1</dim>
					<dim>1</dim>
				</port>
			</output>
		</layer>
		<layer id="77" name="Convolution_754" type="Convolution" version="opset1">
			<data strides="1, 1" dilations="1, 1" pads_begin="0, 0" pads_end="0, 0" auto_pad="explicit" />
			<rt_info>
				<attribute name="fused_names" version="0" value="Convolution_754" />
			</rt_info>
			<input>
				<port id="0" precision="FP32">
					<dim>1</dim>
					<dim>16</dim>
					<dim>1</dim>
					<dim>1</dim>
				</port>
				<port id="1" precision="FP32">
					<dim>64</dim>
					<dim>16</dim>
					<dim>1</dim>
					<dim>1</dim>
				</port>
			</input>
			<output>
				<port id="2" precision="FP32">
					<dim>1</dim>
					<dim>64</dim>
					<dim>1</dim>
					<dim>1</dim>
				</port>
			</output>
		</layer>
		<layer id="78" name="Reshape_774_compressed" type="Const" version="opset1">
			<data element_type="f16" shape="1, 64, 1, 1" offset="15116" size="128" />
			<output>
				<port id="0" precision="FP16">
					<dim>1</dim>
					<dim>64</dim>
					<dim>1</dim>
					<dim>1</dim>
				</port>
			</output>
		</layer>
		<layer id="79" name="Reshape_774" type="Convert" version="opset1">
			<data destination_type="f32" />
			<rt_info>
				<attribute name="decompression" version="0" />
			</rt_info>
			<input>
				<port id="0" precision="FP16">
					<dim>1</dim>
					<dim>64</dim>
					<dim>1</dim>
					<dim>1</dim>
				</port>
			</input>
			<output>
				<port id="1" precision="FP32">
					<dim>1</dim>
					<dim>64</dim>
					<dim>1</dim>
					<dim>1</dim>
				</port>
			</output>
		</layer>
		<layer id="80" name="343" type="Add" version="opset1">
			<data auto_broadcast="numpy" />
			<rt_info>
				<attribute name="fused_names" version="0" value="343, Concat_773, Reshape_774" />
			</rt_info>
			<input>
				<port id="0" precision="FP32">
					<dim>1</dim>
					<dim>64</dim>
					<dim>1</dim>
					<dim>1</dim>
				</port>
				<port id="1" precision="FP32">
					<dim>1</dim>
					<dim>64</dim>
					<dim>1</dim>
					<dim>1</dim>
				</port>
			</input>
			<output>
				<port id="2" precision="FP32" names="343">
					<dim>1</dim>
					<dim>64</dim>
					<dim>1</dim>
					<dim>1</dim>
				</port>
			</output>
		</layer>
		<layer id="81" name="350" type="HSigmoid" version="opset5">
			<rt_info>
				<attribute name="fused_names" version="0" value="345, 348, 350, Maximum_803" />
			</rt_info>
			<input>
				<port id="0" precision="FP32">
					<dim>1</dim>
					<dim>64</dim>
					<dim>1</dim>
					<dim>1</dim>
				</port>
			</input>
			<output>
				<port id="1" precision="FP32" names="350">
					<dim>1</dim>
					<dim>64</dim>
					<dim>1</dim>
					<dim>1</dim>
				</port>
			</output>
		</layer>
		<layer id="82" name="351" type="Multiply" version="opset1">
			<data auto_broadcast="numpy" />
			<rt_info>
				<attribute name="fused_names" version="0" value="351" />
			</rt_info>
			<input>
				<port id="0" precision="FP32">
					<dim>1</dim>
					<dim>64</dim>
					<dim>64</dim>
					<dim>64</dim>
				</port>
				<port id="1" precision="FP32">
					<dim>1</dim>
					<dim>64</dim>
					<dim>1</dim>
					<dim>1</dim>
				</port>
			</input>
			<output>
				<port id="2" precision="FP32" names="351">
					<dim>1</dim>
					<dim>64</dim>
					<dim>64</dim>
					<dim>64</dim>
				</port>
			</output>
		</layer>
		<layer id="83" name="643_compressed" type="Const" version="opset1">
			<data element_type="f16" shape="24, 64, 1, 1" offset="15244" size="3072" />
			<output>
				<port id="0" precision="FP16">
					<dim>24</dim>
					<dim>64</dim>
					<dim>1</dim>
					<dim>1</dim>
				</port>
			</output>
		</layer>
		<layer id="84" name="643" type="Convert" version="opset1">
			<data destination_type="f32" />
			<rt_info>
				<attribute name="decompression" version="0" />
				<attribute name="fused_names" version="0" value="643" />
			</rt_info>
			<input>
				<port id="0" precision="FP16">
					<dim>24</dim>
					<dim>64</dim>
					<dim>1</dim>
					<dim>1</dim>
				</port>
			</input>
			<output>
				<port id="1" precision="FP32" names="643">
					<dim>24</dim>
					<dim>64</dim>
					<dim>1</dim>
					<dim>1</dim>
				</port>
			</output>
		</layer>
		<layer id="85" name="Convolution_807" type="Convolution" version="opset1">
			<data strides="1, 1" dilations="1, 1" pads_begin="0, 0" pads_end="0, 0" auto_pad="explicit" />
			<rt_info>
				<attribute name="fused_names" version="0" value="Convolution_807" />
			</rt_info>
			<input>
				<port id="0" precision="FP32">
					<dim>1</dim>
					<dim>64</dim>
					<dim>64</dim>
					<dim>64</dim>
				</port>
				<port id="1" precision="FP32">
					<dim>24</dim>
					<dim>64</dim>
					<dim>1</dim>
					<dim>1</dim>
				</port>
			</input>
			<output>
				<port id="2" precision="FP32">
					<dim>1</dim>
					<dim>24</dim>
					<dim>64</dim>
					<dim>64</dim>
				</port>
			</output>
		</layer>
		<layer id="86" name="Reshape_827_compressed" type="Const" version="opset1">
			<data element_type="f16" shape="1, 24, 1, 1" offset="18316" size="48" />
			<output>
				<port id="0" precision="FP16">
					<dim>1</dim>
					<dim>24</dim>
					<dim>1</dim>
					<dim>1</dim>
				</port>
			</output>
		</layer>
		<layer id="87" name="Reshape_827" type="Convert" version="opset1">
			<data destination_type="f32" />
			<rt_info>
				<attribute name="decompression" version="0" />
			</rt_info>
			<input>
				<port id="0" precision="FP16">
					<dim>1</dim>
					<dim>24</dim>
					<dim>1</dim>
					<dim>1</dim>
				</port>
			</input>
			<output>
				<port id="1" precision="FP32">
					<dim>1</dim>
					<dim>24</dim>
					<dim>1</dim>
					<dim>1</dim>
				</port>
			</output>
		</layer>
		<layer id="88" name="642" type="Add" version="opset1">
			<data auto_broadcast="numpy" />
			<rt_info>
				<attribute name="fused_names" version="0" value="642, Concat_826, Reshape_827" />
			</rt_info>
			<input>
				<port id="0" precision="FP32">
					<dim>1</dim>
					<dim>24</dim>
					<dim>64</dim>
					<dim>64</dim>
				</port>
				<port id="1" precision="FP32">
					<dim>1</dim>
					<dim>24</dim>
					<dim>1</dim>
					<dim>1</dim>
				</port>
			</input>
			<output>
				<port id="2" precision="FP32" names="642">
					<dim>1</dim>
					<dim>24</dim>
					<dim>64</dim>
					<dim>64</dim>
				</port>
			</output>
		</layer>
		<layer id="89" name="646_compressed" type="Const" version="opset1">
			<data element_type="f16" shape="144, 24, 1, 1" offset="18364" size="6912" />
			<output>
				<port id="0" precision="FP16">
					<dim>144</dim>
					<dim>24</dim>
					<dim>1</dim>
					<dim>1</dim>
				</port>
			</output>
		</layer>
		<layer id="90" name="646" type="Convert" version="opset1">
			<data destination_type="f32" />
			<rt_info>
				<attribute name="decompression" version="0" />
				<attribute name="fused_names" version="0" value="646" />
			</rt_info>
			<input>
				<port id="0" precision="FP16">
					<dim>144</dim>
					<dim>24</dim>
					<dim>1</dim>
					<dim>1</dim>
				</port>
			</input>
			<output>
				<port id="1" precision="FP32" names="646">
					<dim>144</dim>
					<dim>24</dim>
					<dim>1</dim>
					<dim>1</dim>
				</port>
			</output>
		</layer>
		<layer id="91" name="Convolution_855" type="Convolution" version="opset1">
			<data strides="1, 1" dilations="1, 1" pads_begin="0, 0" pads_end="0, 0" auto_pad="explicit" />
			<rt_info>
				<attribute name="fused_names" version="0" value="Convolution_855" />
			</rt_info>
			<input>
				<port id="0" precision="FP32">
					<dim>1</dim>
					<dim>24</dim>
					<dim>64</dim>
					<dim>64</dim>
				</port>
				<port id="1" precision="FP32">
					<dim>144</dim>
					<dim>24</dim>
					<dim>1</dim>
					<dim>1</dim>
				</port>
			</input>
			<output>
				<port id="2" precision="FP32">
					<dim>1</dim>
					<dim>144</dim>
					<dim>64</dim>
					<dim>64</dim>
				</port>
			</output>
		</layer>
		<layer id="92" name="Reshape_875_compressed" type="Const" version="opset1">
			<data element_type="f16" shape="1, 144, 1, 1" offset="25276" size="288" />
			<output>
				<port id="0" precision="FP16">
					<dim>1</dim>
					<dim>144</dim>
					<dim>1</dim>
					<dim>1</dim>
				</port>
			</output>
		</layer>
		<layer id="93" name="Reshape_875" type="Convert" version="opset1">
			<data destination_type="f32" />
			<rt_info>
				<attribute name="decompression" version="0" />
			</rt_info>
			<input>
				<port id="0" precision="FP16">
					<dim>1</dim>
					<dim>144</dim>
					<dim>1</dim>
					<dim>1</dim>
				</port>
			</input>
			<output>
				<port id="1" precision="FP32">
					<dim>1</dim>
					<dim>144</dim>
					<dim>1</dim>
					<dim>1</dim>
				</port>
			</output>
		</layer>
		<layer id="94" name="645" type="Add" version="opset1">
			<data auto_broadcast="numpy" />
			<rt_info>
				<attribute name="fused_names" version="0" value="645, Concat_874, Reshape_875" />
			</rt_info>
			<input>
				<port id="0" precision="FP32">
					<dim>1</dim>
					<dim>144</dim>
					<dim>64</dim>
					<dim>64</dim>
				</port>
				<port id="1" precision="FP32">
					<dim>1</dim>
					<dim>144</dim>
					<dim>1</dim>
					<dim>1</dim>
				</port>
			</input>
			<output>
				<port id="2" precision="FP32" names="645">
					<dim>1</dim>
					<dim>144</dim>
					<dim>64</dim>
					<dim>64</dim>
				</port>
			</output>
		</layer>
		<layer id="95" name="357" type="Swish" version="opset4">
			<rt_info>
				<attribute name="fused_names" version="0" value="356, 357" />
			</rt_info>
			<input>
				<port id="0" precision="FP32">
					<dim>1</dim>
					<dim>144</dim>
					<dim>64</dim>
					<dim>64</dim>
				</port>
			</input>
			<output>
				<port id="1" precision="FP32" names="357">
					<dim>1</dim>
					<dim>144</dim>
					<dim>64</dim>
					<dim>64</dim>
				</port>
			</output>
		</layer>
		<layer id="96" name="Reshape_912_compressed" type="Const" version="opset1">
			<data element_type="f16" shape="144, 1, 1, 7, 7" offset="25564" size="14112" />
			<output>
				<port id="0" precision="FP16">
					<dim>144</dim>
					<dim>1</dim>
					<dim>1</dim>
					<dim>7</dim>
					<dim>7</dim>
				</port>
			</output>
		</layer>
		<layer id="97" name="Reshape_912" type="Convert" version="opset1">
			<data destination_type="f32" />
			<rt_info>
				<attribute name="decompression" version="0" />
			</rt_info>
			<input>
				<port id="0" precision="FP16">
					<dim>144</dim>
					<dim>1</dim>
					<dim>1</dim>
					<dim>7</dim>
					<dim>7</dim>
				</port>
			</input>
			<output>
				<port id="1" precision="FP32">
					<dim>144</dim>
					<dim>1</dim>
					<dim>1</dim>
					<dim>7</dim>
					<dim>7</dim>
				</port>
			</output>
		</layer>
		<layer id="98" name="GroupConvolution_978" type="GroupConvolution" version="opset1">
			<data strides="1, 1" pads_begin="3, 3" pads_end="3, 3" dilations="1, 1" auto_pad="explicit" />
			<rt_info>
				<attribute name="fused_names" version="0" value="GroupConvolution_978, Reshape_912" />
			</rt_info>
			<input>
				<port id="0" precision="FP32">
					<dim>1</dim>
					<dim>144</dim>
					<dim>64</dim>
					<dim>64</dim>
				</port>
				<port id="1" precision="FP32">
					<dim>144</dim>
					<dim>1</dim>
					<dim>1</dim>
					<dim>7</dim>
					<dim>7</dim>
				</port>
			</input>
			<output>
				<port id="2" precision="FP32">
					<dim>1</dim>
					<dim>144</dim>
					<dim>64</dim>
					<dim>64</dim>
				</port>
			</output>
		</layer>
		<layer id="99" name="Reshape_998_compressed" type="Const" version="opset1">
			<data element_type="f16" shape="1, 144, 1, 1" offset="39676" size="288" />
			<output>
				<port id="0" precision="FP16">
					<dim>1</dim>
					<dim>144</dim>
					<dim>1</dim>
					<dim>1</dim>
				</port>
			</output>
		</layer>
		<layer id="100" name="Reshape_998" type="Convert" version="opset1">
			<data destination_type="f32" />
			<rt_info>
				<attribute name="decompression" version="0" />
			</rt_info>
			<input>
				<port id="0" precision="FP16">
					<dim>1</dim>
					<dim>144</dim>
					<dim>1</dim>
					<dim>1</dim>
				</port>
			</input>
			<output>
				<port id="1" precision="FP32">
					<dim>1</dim>
					<dim>144</dim>
					<dim>1</dim>
					<dim>1</dim>
				</port>
			</output>
		</layer>
		<layer id="101" name="648" type="Add" version="opset1">
			<data auto_broadcast="numpy" />
			<rt_info>
				<attribute name="fused_names" version="0" value="648, Concat_997, Reshape_998" />
			</rt_info>
			<input>
				<port id="0" precision="FP32">
					<dim>1</dim>
					<dim>144</dim>
					<dim>64</dim>
					<dim>64</dim>
				</port>
				<port id="1" precision="FP32">
					<dim>1</dim>
					<dim>144</dim>
					<dim>1</dim>
					<dim>1</dim>
				</port>
			</input>
			<output>
				<port id="2" precision="FP32" names="648">
					<dim>1</dim>
					<dim>144</dim>
					<dim>64</dim>
					<dim>64</dim>
				</port>
			</output>
		</layer>
		<layer id="102" name="361" type="Swish" version="opset4">
			<rt_info>
				<attribute name="fused_names" version="0" value="360, 361" />
			</rt_info>
			<input>
				<port id="0" precision="FP32">
					<dim>1</dim>
					<dim>144</dim>
					<dim>64</dim>
					<dim>64</dim>
				</port>
			</input>
			<output>
				<port id="1" precision="FP32" names="361">
					<dim>1</dim>
					<dim>144</dim>
					<dim>64</dim>
					<dim>64</dim>
				</port>
			</output>
		</layer>
		<layer id="103" name="Range_1035" type="Const" version="opset1">
			<data element_type="i64" shape="2" offset="1292" size="16" />
			<output>
				<port id="0" precision="I64">
					<dim>2</dim>
				</port>
			</output>
		</layer>
		<layer id="104" name="362" type="ReduceMean" version="opset1">
			<data keep_dims="true" />
			<rt_info>
				<attribute name="fused_names" version="0" value="362, Range_1035" />
			</rt_info>
			<input>
				<port id="0" precision="FP32">
					<dim>1</dim>
					<dim>144</dim>
					<dim>64</dim>
					<dim>64</dim>
				</port>
				<port id="1" precision="I64">
					<dim>2</dim>
				</port>
			</input>
			<output>
				<port id="2" precision="FP32" names="362">
					<dim>1</dim>
					<dim>144</dim>
					<dim>1</dim>
					<dim>1</dim>
				</port>
			</output>
		</layer>
		<layer id="105" name="blocks.1.1.se.conv_reduce.weight_compressed" type="Const" version="opset1">
			<data element_type="f16" shape="40, 144, 1, 1" offset="39964" size="11520" />
			<output>
				<port id="0" precision="FP16">
					<dim>40</dim>
					<dim>144</dim>
					<dim>1</dim>
					<dim>1</dim>
				</port>
			</output>
		</layer>
		<layer id="106" name="blocks.1.1.se.conv_reduce.weight" type="Convert" version="opset1">
			<data destination_type="f32" />
			<rt_info>
				<attribute name="decompression" version="0" />
				<attribute name="fused_names" version="0" value="blocks.1.1.se.conv_reduce.weight" />
			</rt_info>
			<input>
				<port id="0" precision="FP16">
					<dim>40</dim>
					<dim>144</dim>
					<dim>1</dim>
					<dim>1</dim>
				</port>
			</input>
			<output>
				<port id="1" precision="FP32" names="blocks.1.1.se.conv_reduce.weight">
					<dim>40</dim>
					<dim>144</dim>
					<dim>1</dim>
					<dim>1</dim>
				</port>
			</output>
		</layer>
		<layer id="107" name="Convolution_1060" type="Convolution" version="opset1">
			<data strides="1, 1" dilations="1, 1" pads_begin="0, 0" pads_end="0, 0" auto_pad="explicit" />
			<rt_info>
				<attribute name="fused_names" version="0" value="Convolution_1060" />
			</rt_info>
			<input>
				<port id="0" precision="FP32">
					<dim>1</dim>
					<dim>144</dim>
					<dim>1</dim>
					<dim>1</dim>
				</port>
				<port id="1" precision="FP32">
					<dim>40</dim>
					<dim>144</dim>
					<dim>1</dim>
					<dim>1</dim>
				</port>
			</input>
			<output>
				<port id="2" precision="FP32">
					<dim>1</dim>
					<dim>40</dim>
					<dim>1</dim>
					<dim>1</dim>
				</port>
			</output>
		</layer>
		<layer id="108" name="Reshape_1080_compressed" type="Const" version="opset1">
			<data element_type="f16" shape="1, 40, 1, 1" offset="51484" size="80" />
			<output>
				<port id="0" precision="FP16">
					<dim>1</dim>
					<dim>40</dim>
					<dim>1</dim>
					<dim>1</dim>
				</port>
			</output>
		</layer>
		<layer id="109" name="Reshape_1080" type="Convert" version="opset1">
			<data destination_type="f32" />
			<rt_info>
				<attribute name="decompression" version="0" />
			</rt_info>
			<input>
				<port id="0" precision="FP16">
					<dim>1</dim>
					<dim>40</dim>
					<dim>1</dim>
					<dim>1</dim>
				</port>
			</input>
			<output>
				<port id="1" precision="FP32">
					<dim>1</dim>
					<dim>40</dim>
					<dim>1</dim>
					<dim>1</dim>
				</port>
			</output>
		</layer>
		<layer id="110" name="363" type="Add" version="opset1">
			<data auto_broadcast="numpy" />
			<rt_info>
				<attribute name="fused_names" version="0" value="363, Concat_1079, Reshape_1080" />
			</rt_info>
			<input>
				<port id="0" precision="FP32">
					<dim>1</dim>
					<dim>40</dim>
					<dim>1</dim>
					<dim>1</dim>
				</port>
				<port id="1" precision="FP32">
					<dim>1</dim>
					<dim>40</dim>
					<dim>1</dim>
					<dim>1</dim>
				</port>
			</input>
			<output>
				<port id="2" precision="FP32" names="363">
					<dim>1</dim>
					<dim>40</dim>
					<dim>1</dim>
					<dim>1</dim>
				</port>
			</output>
		</layer>
		<layer id="111" name="364" type="ReLU" version="opset1">
			<rt_info>
				<attribute name="fused_names" version="0" value="364" />
			</rt_info>
			<input>
				<port id="0" precision="FP32">
					<dim>1</dim>
					<dim>40</dim>
					<dim>1</dim>
					<dim>1</dim>
				</port>
			</input>
			<output>
				<port id="1" precision="FP32" names="364">
					<dim>1</dim>
					<dim>40</dim>
					<dim>1</dim>
					<dim>1</dim>
				</port>
			</output>
		</layer>
		<layer id="112" name="blocks.1.1.se.conv_expand.weight_compressed" type="Const" version="opset1">
			<data element_type="f16" shape="144, 40, 1, 1" offset="51564" size="11520" />
			<output>
				<port id="0" precision="FP16">
					<dim>144</dim>
					<dim>40</dim>
					<dim>1</dim>
					<dim>1</dim>
				</port>
			</output>
		</layer>
		<layer id="113" name="blocks.1.1.se.conv_expand.weight" type="Convert" version="opset1">
			<data destination_type="f32" />
			<rt_info>
				<attribute name="decompression" version="0" />
				<attribute name="fused_names" version="0" value="blocks.1.1.se.conv_expand.weight" />
			</rt_info>
			<input>
				<port id="0" precision="FP16">
					<dim>144</dim>
					<dim>40</dim>
					<dim>1</dim>
					<dim>1</dim>
				</port>
			</input>
			<output>
				<port id="1" precision="FP32" names="blocks.1.1.se.conv_expand.weight">
					<dim>144</dim>
					<dim>40</dim>
					<dim>1</dim>
					<dim>1</dim>
				</port>
			</output>
		</layer>
		<layer id="114" name="Convolution_1109" type="Convolution" version="opset1">
			<data strides="1, 1" dilations="1, 1" pads_begin="0, 0" pads_end="0, 0" auto_pad="explicit" />
			<rt_info>
				<attribute name="fused_names" version="0" value="Convolution_1109" />
			</rt_info>
			<input>
				<port id="0" precision="FP32">
					<dim>1</dim>
					<dim>40</dim>
					<dim>1</dim>
					<dim>1</dim>
				</port>
				<port id="1" precision="FP32">
					<dim>144</dim>
					<dim>40</dim>
					<dim>1</dim>
					<dim>1</dim>
				</port>
			</input>
			<output>
				<port id="2" precision="FP32">
					<dim>1</dim>
					<dim>144</dim>
					<dim>1</dim>
					<dim>1</dim>
				</port>
			</output>
		</layer>
		<layer id="115" name="Reshape_1129_compressed" type="Const" version="opset1">
			<data element_type="f16" shape="1, 144, 1, 1" offset="63084" size="288" />
			<output>
				<port id="0" precision="FP16">
					<dim>1</dim>
					<dim>144</dim>
					<dim>1</dim>
					<dim>1</dim>
				</port>
			</output>
		</layer>
		<layer id="116" name="Reshape_1129" type="Convert" version="opset1">
			<data destination_type="f32" />
			<rt_info>
				<attribute name="decompression" version="0" />
			</rt_info>
			<input>
				<port id="0" precision="FP16">
					<dim>1</dim>
					<dim>144</dim>
					<dim>1</dim>
					<dim>1</dim>
				</port>
			</input>
			<output>
				<port id="1" precision="FP32">
					<dim>1</dim>
					<dim>144</dim>
					<dim>1</dim>
					<dim>1</dim>
				</port>
			</output>
		</layer>
		<layer id="117" name="365" type="Add" version="opset1">
			<data auto_broadcast="numpy" />
			<rt_info>
				<attribute name="fused_names" version="0" value="365, Concat_1128, Reshape_1129" />
			</rt_info>
			<input>
				<port id="0" precision="FP32">
					<dim>1</dim>
					<dim>144</dim>
					<dim>1</dim>
					<dim>1</dim>
				</port>
				<port id="1" precision="FP32">
					<dim>1</dim>
					<dim>144</dim>
					<dim>1</dim>
					<dim>1</dim>
				</port>
			</input>
			<output>
				<port id="2" precision="FP32" names="365">
					<dim>1</dim>
					<dim>144</dim>
					<dim>1</dim>
					<dim>1</dim>
				</port>
			</output>
		</layer>
		<layer id="118" name="372" type="HSigmoid" version="opset5">
			<rt_info>
				<attribute name="fused_names" version="0" value="367, 370, 372, Maximum_1158" />
			</rt_info>
			<input>
				<port id="0" precision="FP32">
					<dim>1</dim>
					<dim>144</dim>
					<dim>1</dim>
					<dim>1</dim>
				</port>
			</input>
			<output>
				<port id="1" precision="FP32" names="372">
					<dim>1</dim>
					<dim>144</dim>
					<dim>1</dim>
					<dim>1</dim>
				</port>
			</output>
		</layer>
		<layer id="119" name="373" type="Multiply" version="opset1">
			<data auto_broadcast="numpy" />
			<rt_info>
				<attribute name="fused_names" version="0" value="373" />
			</rt_info>
			<input>
				<port id="0" precision="FP32">
					<dim>1</dim>
					<dim>144</dim>
					<dim>64</dim>
					<dim>64</dim>
				</port>
				<port id="1" precision="FP32">
					<dim>1</dim>
					<dim>144</dim>
					<dim>1</dim>
					<dim>1</dim>
				</port>
			</input>
			<output>
				<port id="2" precision="FP32" names="373">
					<dim>1</dim>
					<dim>144</dim>
					<dim>64</dim>
					<dim>64</dim>
				</port>
			</output>
		</layer>
		<layer id="120" name="652_compressed" type="Const" version="opset1">
			<data element_type="f16" shape="24, 144, 1, 1" offset="63372" size="6912" />
			<output>
				<port id="0" precision="FP16">
					<dim>24</dim>
					<dim>144</dim>
					<dim>1</dim>
					<dim>1</dim>
				</port>
			</output>
		</layer>
		<layer id="121" name="652" type="Convert" version="opset1">
			<data destination_type="f32" />
			<rt_info>
				<attribute name="decompression" version="0" />
				<attribute name="fused_names" version="0" value="652" />
			</rt_info>
			<input>
				<port id="0" precision="FP16">
					<dim>24</dim>
					<dim>144</dim>
					<dim>1</dim>
					<dim>1</dim>
				</port>
			</input>
			<output>
				<port id="1" precision="FP32" names="652">
					<dim>24</dim>
					<dim>144</dim>
					<dim>1</dim>
					<dim>1</dim>
				</port>
			</output>
		</layer>
		<layer id="122" name="Convolution_1162" type="Convolution" version="opset1">
			<data strides="1, 1" dilations="1, 1" pads_begin="0, 0" pads_end="0, 0" auto_pad="explicit" />
			<rt_info>
				<attribute name="fused_names" version="0" value="Convolution_1162" />
			</rt_info>
			<input>
				<port id="0" precision="FP32">
					<dim>1</dim>
					<dim>144</dim>
					<dim>64</dim>
					<dim>64</dim>
				</port>
				<port id="1" precision="FP32">
					<dim>24</dim>
					<dim>144</dim>
					<dim>1</dim>
					<dim>1</dim>
				</port>
			</input>
			<output>
				<port id="2" precision="FP32">
					<dim>1</dim>
					<dim>24</dim>
					<dim>64</dim>
					<dim>64</dim>
				</port>
			</output>
		</layer>
		<layer id="123" name="Reshape_1182_compressed" type="Const" version="opset1">
			<data element_type="f16" shape="1, 24, 1, 1" offset="70284" size="48" />
			<output>
				<port id="0" precision="FP16">
					<dim>1</dim>
					<dim>24</dim>
					<dim>1</dim>
					<dim>1</dim>
				</port>
			</output>
		</layer>
		<layer id="124" name="Reshape_1182" type="Convert" version="opset1">
			<data destination_type="f32" />
			<rt_info>
				<attribute name="decompression" version="0" />
			</rt_info>
			<input>
				<port id="0" precision="FP16">
					<dim>1</dim>
					<dim>24</dim>
					<dim>1</dim>
					<dim>1</dim>
				</port>
			</input>
			<output>
				<port id="1" precision="FP32">
					<dim>1</dim>
					<dim>24</dim>
					<dim>1</dim>
					<dim>1</dim>
				</port>
			</output>
		</layer>
		<layer id="125" name="651" type="Add" version="opset1">
			<data auto_broadcast="numpy" />
			<rt_info>
				<attribute name="fused_names" version="0" value="651, Concat_1181, Reshape_1182" />
			</rt_info>
			<input>
				<port id="0" precision="FP32">
					<dim>1</dim>
					<dim>24</dim>
					<dim>64</dim>
					<dim>64</dim>
				</port>
				<port id="1" precision="FP32">
					<dim>1</dim>
					<dim>24</dim>
					<dim>1</dim>
					<dim>1</dim>
				</port>
			</input>
			<output>
				<port id="2" precision="FP32" names="651">
					<dim>1</dim>
					<dim>24</dim>
					<dim>64</dim>
					<dim>64</dim>
				</port>
			</output>
		</layer>
		<layer id="126" name="376" type="Add" version="opset1">
			<data auto_broadcast="numpy" />
			<rt_info>
				<attribute name="fused_names" version="0" value="376" />
			</rt_info>
			<input>
				<port id="0" precision="FP32">
					<dim>1</dim>
					<dim>24</dim>
					<dim>64</dim>
					<dim>64</dim>
				</port>
				<port id="1" precision="FP32">
					<dim>1</dim>
					<dim>24</dim>
					<dim>64</dim>
					<dim>64</dim>
				</port>
			</input>
			<output>
				<port id="2" precision="FP32" names="376">
					<dim>1</dim>
					<dim>24</dim>
					<dim>64</dim>
					<dim>64</dim>
				</port>
			</output>
		</layer>
		<layer id="127" name="655_compressed" type="Const" version="opset1">
			<data element_type="f16" shape="96, 24, 1, 1" offset="70332" size="4608" />
			<output>
				<port id="0" precision="FP16">
					<dim>96</dim>
					<dim>24</dim>
					<dim>1</dim>
					<dim>1</dim>
				</port>
			</output>
		</layer>
		<layer id="128" name="655" type="Convert" version="opset1">
			<data destination_type="f32" />
			<rt_info>
				<attribute name="decompression" version="0" />
				<attribute name="fused_names" version="0" value="655" />
			</rt_info>
			<input>
				<port id="0" precision="FP16">
					<dim>96</dim>
					<dim>24</dim>
					<dim>1</dim>
					<dim>1</dim>
				</port>
			</input>
			<output>
				<port id="1" precision="FP32" names="655">
					<dim>96</dim>
					<dim>24</dim>
					<dim>1</dim>
					<dim>1</dim>
				</port>
			</output>
		</layer>
		<layer id="129" name="Convolution_1211" type="Convolution" version="opset1">
			<data strides="1, 1" dilations="1, 1" pads_begin="0, 0" pads_end="0, 0" auto_pad="explicit" />
			<rt_info>
				<attribute name="fused_names" version="0" value="Convolution_1211" />
			</rt_info>
			<input>
				<port id="0" precision="FP32">
					<dim>1</dim>
					<dim>24</dim>
					<dim>64</dim>
					<dim>64</dim>
				</port>
				<port id="1" precision="FP32">
					<dim>96</dim>
					<dim>24</dim>
					<dim>1</dim>
					<dim>1</dim>
				</port>
			</input>
			<output>
				<port id="2" precision="FP32">
					<dim>1</dim>
					<dim>96</dim>
					<dim>64</dim>
					<dim>64</dim>
				</port>
			</output>
		</layer>
		<layer id="130" name="Reshape_1231_compressed" type="Const" version="opset1">
			<data element_type="f16" shape="1, 96, 1, 1" offset="74940" size="192" />
			<output>
				<port id="0" precision="FP16">
					<dim>1</dim>
					<dim>96</dim>
					<dim>1</dim>
					<dim>1</dim>
				</port>
			</output>
		</layer>
		<layer id="131" name="Reshape_1231" type="Convert" version="opset1">
			<data destination_type="f32" />
			<rt_info>
				<attribute name="decompression" version="0" />
			</rt_info>
			<input>
				<port id="0" precision="FP16">
					<dim>1</dim>
					<dim>96</dim>
					<dim>1</dim>
					<dim>1</dim>
				</port>
			</input>
			<output>
				<port id="1" precision="FP32">
					<dim>1</dim>
					<dim>96</dim>
					<dim>1</dim>
					<dim>1</dim>
				</port>
			</output>
		</layer>
		<layer id="132" name="654" type="Add" version="opset1">
			<data auto_broadcast="numpy" />
			<rt_info>
				<attribute name="fused_names" version="0" value="654, Concat_1230, Reshape_1231" />
			</rt_info>
			<input>
				<port id="0" precision="FP32">
					<dim>1</dim>
					<dim>96</dim>
					<dim>64</dim>
					<dim>64</dim>
				</port>
				<port id="1" precision="FP32">
					<dim>1</dim>
					<dim>96</dim>
					<dim>1</dim>
					<dim>1</dim>
				</port>
			</input>
			<output>
				<port id="2" precision="FP32" names="654">
					<dim>1</dim>
					<dim>96</dim>
					<dim>64</dim>
					<dim>64</dim>
				</port>
			</output>
		</layer>
		<layer id="133" name="380" type="Swish" version="opset4">
			<rt_info>
				<attribute name="fused_names" version="0" value="379, 380" />
			</rt_info>
			<input>
				<port id="0" precision="FP32">
					<dim>1</dim>
					<dim>96</dim>
					<dim>64</dim>
					<dim>64</dim>
				</port>
			</input>
			<output>
				<port id="1" precision="FP32" names="380">
					<dim>1</dim>
					<dim>96</dim>
					<dim>64</dim>
					<dim>64</dim>
				</port>
			</output>
		</layer>
		<layer id="134" name="Reshape_1268_compressed" type="Const" version="opset1">
			<data element_type="f16" shape="96, 1, 1, 3, 3" offset="75132" size="1728" />
			<output>
				<port id="0" precision="FP16">
					<dim>96</dim>
					<dim>1</dim>
					<dim>1</dim>
					<dim>3</dim>
					<dim>3</dim>
				</port>
			</output>
		</layer>
		<layer id="135" name="Reshape_1268" type="Convert" version="opset1">
			<data destination_type="f32" />
			<rt_info>
				<attribute name="decompression" version="0" />
			</rt_info>
			<input>
				<port id="0" precision="FP16">
					<dim>96</dim>
					<dim>1</dim>
					<dim>1</dim>
					<dim>3</dim>
					<dim>3</dim>
				</port>
			</input>
			<output>
				<port id="1" precision="FP32">
					<dim>96</dim>
					<dim>1</dim>
					<dim>1</dim>
					<dim>3</dim>
					<dim>3</dim>
				</port>
			</output>
		</layer>
		<layer id="136" name="GroupConvolution_1334" type="GroupConvolution" version="opset1">
			<data strides="2, 2" pads_begin="1, 1" pads_end="1, 1" dilations="1, 1" auto_pad="explicit" />
			<rt_info>
				<attribute name="fused_names" version="0" value="GroupConvolution_1334, Reshape_1268" />
			</rt_info>
			<input>
				<port id="0" precision="FP32">
					<dim>1</dim>
					<dim>96</dim>
					<dim>64</dim>
					<dim>64</dim>
				</port>
				<port id="1" precision="FP32">
					<dim>96</dim>
					<dim>1</dim>
					<dim>1</dim>
					<dim>3</dim>
					<dim>3</dim>
				</port>
			</input>
			<output>
				<port id="2" precision="FP32">
					<dim>1</dim>
					<dim>96</dim>
					<dim>32</dim>
					<dim>32</dim>
				</port>
			</output>
		</layer>
		<layer id="137" name="Reshape_1354_compressed" type="Const" version="opset1">
			<data element_type="f16" shape="1, 96, 1, 1" offset="76860" size="192" />
			<output>
				<port id="0" precision="FP16">
					<dim>1</dim>
					<dim>96</dim>
					<dim>1</dim>
					<dim>1</dim>
				</port>
			</output>
		</layer>
		<layer id="138" name="Reshape_1354" type="Convert" version="opset1">
			<data destination_type="f32" />
			<rt_info>
				<attribute name="decompression" version="0" />
			</rt_info>
			<input>
				<port id="0" precision="FP16">
					<dim>1</dim>
					<dim>96</dim>
					<dim>1</dim>
					<dim>1</dim>
				</port>
			</input>
			<output>
				<port id="1" precision="FP32">
					<dim>1</dim>
					<dim>96</dim>
					<dim>1</dim>
					<dim>1</dim>
				</port>
			</output>
		</layer>
		<layer id="139" name="657" type="Add" version="opset1">
			<data auto_broadcast="numpy" />
			<rt_info>
				<attribute name="fused_names" version="0" value="657, Concat_1353, Reshape_1354" />
			</rt_info>
			<input>
				<port id="0" precision="FP32">
					<dim>1</dim>
					<dim>96</dim>
					<dim>32</dim>
					<dim>32</dim>
				</port>
				<port id="1" precision="FP32">
					<dim>1</dim>
					<dim>96</dim>
					<dim>1</dim>
					<dim>1</dim>
				</port>
			</input>
			<output>
				<port id="2" precision="FP32" names="657">
					<dim>1</dim>
					<dim>96</dim>
					<dim>32</dim>
					<dim>32</dim>
				</port>
			</output>
		</layer>
		<layer id="140" name="384" type="Swish" version="opset4">
			<rt_info>
				<attribute name="fused_names" version="0" value="383, 384" />
			</rt_info>
			<input>
				<port id="0" precision="FP32">
					<dim>1</dim>
					<dim>96</dim>
					<dim>32</dim>
					<dim>32</dim>
				</port>
			</input>
			<output>
				<port id="1" precision="FP32" names="384">
					<dim>1</dim>
					<dim>96</dim>
					<dim>32</dim>
					<dim>32</dim>
				</port>
			</output>
		</layer>
		<layer id="141" name="Range_1391" type="Const" version="opset1">
			<data element_type="i64" shape="2" offset="1292" size="16" />
			<output>
				<port id="0" precision="I64">
					<dim>2</dim>
				</port>
			</output>
		</layer>
		<layer id="142" name="385" type="ReduceMean" version="opset1">
			<data keep_dims="true" />
			<rt_info>
				<attribute name="fused_names" version="0" value="385, Range_1391" />
			</rt_info>
			<input>
				<port id="0" precision="FP32">
					<dim>1</dim>
					<dim>96</dim>
					<dim>32</dim>
					<dim>32</dim>
				</port>
				<port id="1" precision="I64">
					<dim>2</dim>
				</port>
			</input>
			<output>
				<port id="2" precision="FP32" names="385">
					<dim>1</dim>
					<dim>96</dim>
					<dim>1</dim>
					<dim>1</dim>
				</port>
			</output>
		</layer>
		<layer id="143" name="blocks.2.0.se.conv_reduce.weight_compressed" type="Const" version="opset1">
			<data element_type="f16" shape="24, 96, 1, 1" offset="77052" size="4608" />
			<output>
				<port id="0" precision="FP16">
					<dim>24</dim>
					<dim>96</dim>
					<dim>1</dim>
					<dim>1</dim>
				</port>
			</output>
		</layer>
		<layer id="144" name="blocks.2.0.se.conv_reduce.weight" type="Convert" version="opset1">
			<data destination_type="f32" />
			<rt_info>
				<attribute name="decompression" version="0" />
				<attribute name="fused_names" version="0" value="blocks.2.0.se.conv_reduce.weight" />
			</rt_info>
			<input>
				<port id="0" precision="FP16">
					<dim>24</dim>
					<dim>96</dim>
					<dim>1</dim>
					<dim>1</dim>
				</port>
			</input>
			<output>
				<port id="1" precision="FP32" names="blocks.2.0.se.conv_reduce.weight">
					<dim>24</dim>
					<dim>96</dim>
					<dim>1</dim>
					<dim>1</dim>
				</port>
			</output>
		</layer>
		<layer id="145" name="Convolution_1416" type="Convolution" version="opset1">
			<data strides="1, 1" dilations="1, 1" pads_begin="0, 0" pads_end="0, 0" auto_pad="explicit" />
			<rt_info>
				<attribute name="fused_names" version="0" value="Convolution_1416" />
			</rt_info>
			<input>
				<port id="0" precision="FP32">
					<dim>1</dim>
					<dim>96</dim>
					<dim>1</dim>
					<dim>1</dim>
				</port>
				<port id="1" precision="FP32">
					<dim>24</dim>
					<dim>96</dim>
					<dim>1</dim>
					<dim>1</dim>
				</port>
			</input>
			<output>
				<port id="2" precision="FP32">
					<dim>1</dim>
					<dim>24</dim>
					<dim>1</dim>
					<dim>1</dim>
				</port>
			</output>
		</layer>
		<layer id="146" name="Reshape_1436_compressed" type="Const" version="opset1">
			<data element_type="f16" shape="1, 24, 1, 1" offset="81660" size="48" />
			<output>
				<port id="0" precision="FP16">
					<dim>1</dim>
					<dim>24</dim>
					<dim>1</dim>
					<dim>1</dim>
				</port>
			</output>
		</layer>
		<layer id="147" name="Reshape_1436" type="Convert" version="opset1">
			<data destination_type="f32" />
			<rt_info>
				<attribute name="decompression" version="0" />
			</rt_info>
			<input>
				<port id="0" precision="FP16">
					<dim>1</dim>
					<dim>24</dim>
					<dim>1</dim>
					<dim>1</dim>
				</port>
			</input>
			<output>
				<port id="1" precision="FP32">
					<dim>1</dim>
					<dim>24</dim>
					<dim>1</dim>
					<dim>1</dim>
				</port>
			</output>
		</layer>
		<layer id="148" name="386" type="Add" version="opset1">
			<data auto_broadcast="numpy" />
			<rt_info>
				<attribute name="fused_names" version="0" value="386, Concat_1435, Reshape_1436" />
			</rt_info>
			<input>
				<port id="0" precision="FP32">
					<dim>1</dim>
					<dim>24</dim>
					<dim>1</dim>
					<dim>1</dim>
				</port>
				<port id="1" precision="FP32">
					<dim>1</dim>
					<dim>24</dim>
					<dim>1</dim>
					<dim>1</dim>
				</port>
			</input>
			<output>
				<port id="2" precision="FP32" names="386">
					<dim>1</dim>
					<dim>24</dim>
					<dim>1</dim>
					<dim>1</dim>
				</port>
			</output>
		</layer>
		<layer id="149" name="387" type="ReLU" version="opset1">
			<rt_info>
				<attribute name="fused_names" version="0" value="387" />
			</rt_info>
			<input>
				<port id="0" precision="FP32">
					<dim>1</dim>
					<dim>24</dim>
					<dim>1</dim>
					<dim>1</dim>
				</port>
			</input>
			<output>
				<port id="1" precision="FP32" names="387">
					<dim>1</dim>
					<dim>24</dim>
					<dim>1</dim>
					<dim>1</dim>
				</port>
			</output>
		</layer>
		<layer id="150" name="blocks.2.0.se.conv_expand.weight_compressed" type="Const" version="opset1">
			<data element_type="f16" shape="96, 24, 1, 1" offset="81708" size="4608" />
			<output>
				<port id="0" precision="FP16">
					<dim>96</dim>
					<dim>24</dim>
					<dim>1</dim>
					<dim>1</dim>
				</port>
			</output>
		</layer>
		<layer id="151" name="blocks.2.0.se.conv_expand.weight" type="Convert" version="opset1">
			<data destination_type="f32" />
			<rt_info>
				<attribute name="decompression" version="0" />
				<attribute name="fused_names" version="0" value="blocks.2.0.se.conv_expand.weight" />
			</rt_info>
			<input>
				<port id="0" precision="FP16">
					<dim>96</dim>
					<dim>24</dim>
					<dim>1</dim>
					<dim>1</dim>
				</port>
			</input>
			<output>
				<port id="1" precision="FP32" names="blocks.2.0.se.conv_expand.weight">
					<dim>96</dim>
					<dim>24</dim>
					<dim>1</dim>
					<dim>1</dim>
				</port>
			</output>
		</layer>
		<layer id="152" name="Convolution_1465" type="Convolution" version="opset1">
			<data strides="1, 1" dilations="1, 1" pads_begin="0, 0" pads_end="0, 0" auto_pad="explicit" />
			<rt_info>
				<attribute name="fused_names" version="0" value="Convolution_1465" />
			</rt_info>
			<input>
				<port id="0" precision="FP32">
					<dim>1</dim>
					<dim>24</dim>
					<dim>1</dim>
					<dim>1</dim>
				</port>
				<port id="1" precision="FP32">
					<dim>96</dim>
					<dim>24</dim>
					<dim>1</dim>
					<dim>1</dim>
				</port>
			</input>
			<output>
				<port id="2" precision="FP32">
					<dim>1</dim>
					<dim>96</dim>
					<dim>1</dim>
					<dim>1</dim>
				</port>
			</output>
		</layer>
		<layer id="153" name="Reshape_1485_compressed" type="Const" version="opset1">
			<data element_type="f16" shape="1, 96, 1, 1" offset="86316" size="192" />
			<output>
				<port id="0" precision="FP16">
					<dim>1</dim>
					<dim>96</dim>
					<dim>1</dim>
					<dim>1</dim>
				</port>
			</output>
		</layer>
		<layer id="154" name="Reshape_1485" type="Convert" version="opset1">
			<data destination_type="f32" />
			<rt_info>
				<attribute name="decompression" version="0" />
			</rt_info>
			<input>
				<port id="0" precision="FP16">
					<dim>1</dim>
					<dim>96</dim>
					<dim>1</dim>
					<dim>1</dim>
				</port>
			</input>
			<output>
				<port id="1" precision="FP32">
					<dim>1</dim>
					<dim>96</dim>
					<dim>1</dim>
					<dim>1</dim>
				</port>
			</output>
		</layer>
		<layer id="155" name="388" type="Add" version="opset1">
			<data auto_broadcast="numpy" />
			<rt_info>
				<attribute name="fused_names" version="0" value="388, Concat_1484, Reshape_1485" />
			</rt_info>
			<input>
				<port id="0" precision="FP32">
					<dim>1</dim>
					<dim>96</dim>
					<dim>1</dim>
					<dim>1</dim>
				</port>
				<port id="1" precision="FP32">
					<dim>1</dim>
					<dim>96</dim>
					<dim>1</dim>
					<dim>1</dim>
				</port>
			</input>
			<output>
				<port id="2" precision="FP32" names="388">
					<dim>1</dim>
					<dim>96</dim>
					<dim>1</dim>
					<dim>1</dim>
				</port>
			</output>
		</layer>
		<layer id="156" name="395" type="HSigmoid" version="opset5">
			<rt_info>
				<attribute name="fused_names" version="0" value="390, 393, 395, Maximum_1514" />
			</rt_info>
			<input>
				<port id="0" precision="FP32">
					<dim>1</dim>
					<dim>96</dim>
					<dim>1</dim>
					<dim>1</dim>
				</port>
			</input>
			<output>
				<port id="1" precision="FP32" names="395">
					<dim>1</dim>
					<dim>96</dim>
					<dim>1</dim>
					<dim>1</dim>
				</port>
			</output>
		</layer>
		<layer id="157" name="396" type="Multiply" version="opset1">
			<data auto_broadcast="numpy" />
			<rt_info>
				<attribute name="fused_names" version="0" value="396" />
			</rt_info>
			<input>
				<port id="0" precision="FP32">
					<dim>1</dim>
					<dim>96</dim>
					<dim>32</dim>
					<dim>32</dim>
				</port>
				<port id="1" precision="FP32">
					<dim>1</dim>
					<dim>96</dim>
					<dim>1</dim>
					<dim>1</dim>
				</port>
			</input>
			<output>
				<port id="2" precision="FP32" names="396">
					<dim>1</dim>
					<dim>96</dim>
					<dim>32</dim>
					<dim>32</dim>
				</port>
			</output>
		</layer>
		<layer id="158" name="661_compressed" type="Const" version="opset1">
			<data element_type="f16" shape="40, 96, 1, 1" offset="86508" size="7680" />
			<output>
				<port id="0" precision="FP16">
					<dim>40</dim>
					<dim>96</dim>
					<dim>1</dim>
					<dim>1</dim>
				</port>
			</output>
		</layer>
		<layer id="159" name="661" type="Convert" version="opset1">
			<data destination_type="f32" />
			<rt_info>
				<attribute name="decompression" version="0" />
				<attribute name="fused_names" version="0" value="661" />
			</rt_info>
			<input>
				<port id="0" precision="FP16">
					<dim>40</dim>
					<dim>96</dim>
					<dim>1</dim>
					<dim>1</dim>
				</port>
			</input>
			<output>
				<port id="1" precision="FP32" names="661">
					<dim>40</dim>
					<dim>96</dim>
					<dim>1</dim>
					<dim>1</dim>
				</port>
			</output>
		</layer>
		<layer id="160" name="Convolution_1518" type="Convolution" version="opset1">
			<data strides="1, 1" dilations="1, 1" pads_begin="0, 0" pads_end="0, 0" auto_pad="explicit" />
			<rt_info>
				<attribute name="fused_names" version="0" value="Convolution_1518" />
			</rt_info>
			<input>
				<port id="0" precision="FP32">
					<dim>1</dim>
					<dim>96</dim>
					<dim>32</dim>
					<dim>32</dim>
				</port>
				<port id="1" precision="FP32">
					<dim>40</dim>
					<dim>96</dim>
					<dim>1</dim>
					<dim>1</dim>
				</port>
			</input>
			<output>
				<port id="2" precision="FP32">
					<dim>1</dim>
					<dim>40</dim>
					<dim>32</dim>
					<dim>32</dim>
				</port>
			</output>
		</layer>
		<layer id="161" name="Reshape_1538_compressed" type="Const" version="opset1">
			<data element_type="f16" shape="1, 40, 1, 1" offset="94188" size="80" />
			<output>
				<port id="0" precision="FP16">
					<dim>1</dim>
					<dim>40</dim>
					<dim>1</dim>
					<dim>1</dim>
				</port>
			</output>
		</layer>
		<layer id="162" name="Reshape_1538" type="Convert" version="opset1">
			<data destination_type="f32" />
			<rt_info>
				<attribute name="decompression" version="0" />
			</rt_info>
			<input>
				<port id="0" precision="FP16">
					<dim>1</dim>
					<dim>40</dim>
					<dim>1</dim>
					<dim>1</dim>
				</port>
			</input>
			<output>
				<port id="1" precision="FP32">
					<dim>1</dim>
					<dim>40</dim>
					<dim>1</dim>
					<dim>1</dim>
				</port>
			</output>
		</layer>
		<layer id="163" name="660" type="Add" version="opset1">
			<data auto_broadcast="numpy" />
			<rt_info>
				<attribute name="fused_names" version="0" value="660, Concat_1537, Reshape_1538" />
			</rt_info>
			<input>
				<port id="0" precision="FP32">
					<dim>1</dim>
					<dim>40</dim>
					<dim>32</dim>
					<dim>32</dim>
				</port>
				<port id="1" precision="FP32">
					<dim>1</dim>
					<dim>40</dim>
					<dim>1</dim>
					<dim>1</dim>
				</port>
			</input>
			<output>
				<port id="2" precision="FP32" names="660">
					<dim>1</dim>
					<dim>40</dim>
					<dim>32</dim>
					<dim>32</dim>
				</port>
			</output>
		</layer>
		<layer id="164" name="664_compressed" type="Const" version="opset1">
			<data element_type="f16" shape="160, 40, 1, 1" offset="94268" size="12800" />
			<output>
				<port id="0" precision="FP16">
					<dim>160</dim>
					<dim>40</dim>
					<dim>1</dim>
					<dim>1</dim>
				</port>
			</output>
		</layer>
		<layer id="165" name="664" type="Convert" version="opset1">
			<data destination_type="f32" />
			<rt_info>
				<attribute name="decompression" version="0" />
				<attribute name="fused_names" version="0" value="664" />
			</rt_info>
			<input>
				<port id="0" precision="FP16">
					<dim>160</dim>
					<dim>40</dim>
					<dim>1</dim>
					<dim>1</dim>
				</port>
			</input>
			<output>
				<port id="1" precision="FP32" names="664">
					<dim>160</dim>
					<dim>40</dim>
					<dim>1</dim>
					<dim>1</dim>
				</port>
			</output>
		</layer>
		<layer id="166" name="Convolution_1566" type="Convolution" version="opset1">
			<data strides="1, 1" dilations="1, 1" pads_begin="0, 0" pads_end="0, 0" auto_pad="explicit" />
			<rt_info>
				<attribute name="fused_names" version="0" value="Convolution_1566" />
			</rt_info>
			<input>
				<port id="0" precision="FP32">
					<dim>1</dim>
					<dim>40</dim>
					<dim>32</dim>
					<dim>32</dim>
				</port>
				<port id="1" precision="FP32">
					<dim>160</dim>
					<dim>40</dim>
					<dim>1</dim>
					<dim>1</dim>
				</port>
			</input>
			<output>
				<port id="2" precision="FP32">
					<dim>1</dim>
					<dim>160</dim>
					<dim>32</dim>
					<dim>32</dim>
				</port>
			</output>
		</layer>
		<layer id="167" name="Reshape_1586_compressed" type="Const" version="opset1">
			<data element_type="f16" shape="1, 160, 1, 1" offset="107068" size="320" />
			<output>
				<port id="0" precision="FP16">
					<dim>1</dim>
					<dim>160</dim>
					<dim>1</dim>
					<dim>1</dim>
				</port>
			</output>
		</layer>
		<layer id="168" name="Reshape_1586" type="Convert" version="opset1">
			<data destination_type="f32" />
			<rt_info>
				<attribute name="decompression" version="0" />
			</rt_info>
			<input>
				<port id="0" precision="FP16">
					<dim>1</dim>
					<dim>160</dim>
					<dim>1</dim>
					<dim>1</dim>
				</port>
			</input>
			<output>
				<port id="1" precision="FP32">
					<dim>1</dim>
					<dim>160</dim>
					<dim>1</dim>
					<dim>1</dim>
				</port>
			</output>
		</layer>
		<layer id="169" name="663" type="Add" version="opset1">
			<data auto_broadcast="numpy" />
			<rt_info>
				<attribute name="fused_names" version="0" value="663, Concat_1585, Reshape_1586" />
			</rt_info>
			<input>
				<port id="0" precision="FP32">
					<dim>1</dim>
					<dim>160</dim>
					<dim>32</dim>
					<dim>32</dim>
				</port>
				<port id="1" precision="FP32">
					<dim>1</dim>
					<dim>160</dim>
					<dim>1</dim>
					<dim>1</dim>
				</port>
			</input>
			<output>
				<port id="2" precision="FP32" names="663">
					<dim>1</dim>
					<dim>160</dim>
					<dim>32</dim>
					<dim>32</dim>
				</port>
			</output>
		</layer>
		<layer id="170" name="402" type="Swish" version="opset4">
			<rt_info>
				<attribute name="fused_names" version="0" value="401, 402" />
			</rt_info>
			<input>
				<port id="0" precision="FP32">
					<dim>1</dim>
					<dim>160</dim>
					<dim>32</dim>
					<dim>32</dim>
				</port>
			</input>
			<output>
				<port id="1" precision="FP32" names="402">
					<dim>1</dim>
					<dim>160</dim>
					<dim>32</dim>
					<dim>32</dim>
				</port>
			</output>
		</layer>
		<layer id="171" name="Reshape_1623_compressed" type="Const" version="opset1">
			<data element_type="f16" shape="160, 1, 1, 5, 5" offset="107388" size="8000" />
			<output>
				<port id="0" precision="FP16">
					<dim>160</dim>
					<dim>1</dim>
					<dim>1</dim>
					<dim>5</dim>
					<dim>5</dim>
				</port>
			</output>
		</layer>
		<layer id="172" name="Reshape_1623" type="Convert" version="opset1">
			<data destination_type="f32" />
			<rt_info>
				<attribute name="decompression" version="0" />
			</rt_info>
			<input>
				<port id="0" precision="FP16">
					<dim>160</dim>
					<dim>1</dim>
					<dim>1</dim>
					<dim>5</dim>
					<dim>5</dim>
				</port>
			</input>
			<output>
				<port id="1" precision="FP32">
					<dim>160</dim>
					<dim>1</dim>
					<dim>1</dim>
					<dim>5</dim>
					<dim>5</dim>
				</port>
			</output>
		</layer>
		<layer id="173" name="GroupConvolution_1689" type="GroupConvolution" version="opset1">
			<data strides="1, 1" pads_begin="2, 2" pads_end="2, 2" dilations="1, 1" auto_pad="explicit" />
			<rt_info>
				<attribute name="fused_names" version="0" value="GroupConvolution_1689, Reshape_1623" />
			</rt_info>
			<input>
				<port id="0" precision="FP32">
					<dim>1</dim>
					<dim>160</dim>
					<dim>32</dim>
					<dim>32</dim>
				</port>
				<port id="1" precision="FP32">
					<dim>160</dim>
					<dim>1</dim>
					<dim>1</dim>
					<dim>5</dim>
					<dim>5</dim>
				</port>
			</input>
			<output>
				<port id="2" precision="FP32">
					<dim>1</dim>
					<dim>160</dim>
					<dim>32</dim>
					<dim>32</dim>
				</port>
			</output>
		</layer>
		<layer id="174" name="Reshape_1709_compressed" type="Const" version="opset1">
			<data element_type="f16" shape="1, 160, 1, 1" offset="115388" size="320" />
			<output>
				<port id="0" precision="FP16">
					<dim>1</dim>
					<dim>160</dim>
					<dim>1</dim>
					<dim>1</dim>
				</port>
			</output>
		</layer>
		<layer id="175" name="Reshape_1709" type="Convert" version="opset1">
			<data destination_type="f32" />
			<rt_info>
				<attribute name="decompression" version="0" />
			</rt_info>
			<input>
				<port id="0" precision="FP16">
					<dim>1</dim>
					<dim>160</dim>
					<dim>1</dim>
					<dim>1</dim>
				</port>
			</input>
			<output>
				<port id="1" precision="FP32">
					<dim>1</dim>
					<dim>160</dim>
					<dim>1</dim>
					<dim>1</dim>
				</port>
			</output>
		</layer>
		<layer id="176" name="666" type="Add" version="opset1">
			<data auto_broadcast="numpy" />
			<rt_info>
				<attribute name="fused_names" version="0" value="666, Concat_1708, Reshape_1709" />
			</rt_info>
			<input>
				<port id="0" precision="FP32">
					<dim>1</dim>
					<dim>160</dim>
					<dim>32</dim>
					<dim>32</dim>
				</port>
				<port id="1" precision="FP32">
					<dim>1</dim>
					<dim>160</dim>
					<dim>1</dim>
					<dim>1</dim>
				</port>
			</input>
			<output>
				<port id="2" precision="FP32" names="666">
					<dim>1</dim>
					<dim>160</dim>
					<dim>32</dim>
					<dim>32</dim>
				</port>
			</output>
		</layer>
		<layer id="177" name="406" type="Swish" version="opset4">
			<rt_info>
				<attribute name="fused_names" version="0" value="405, 406" />
			</rt_info>
			<input>
				<port id="0" precision="FP32">
					<dim>1</dim>
					<dim>160</dim>
					<dim>32</dim>
					<dim>32</dim>
				</port>
			</input>
			<output>
				<port id="1" precision="FP32" names="406">
					<dim>1</dim>
					<dim>160</dim>
					<dim>32</dim>
					<dim>32</dim>
				</port>
			</output>
		</layer>
		<layer id="178" name="Range_1746" type="Const" version="opset1">
			<data element_type="i64" shape="2" offset="1292" size="16" />
			<output>
				<port id="0" precision="I64">
					<dim>2</dim>
				</port>
			</output>
		</layer>
		<layer id="179" name="407" type="ReduceMean" version="opset1">
			<data keep_dims="true" />
			<rt_info>
				<attribute name="fused_names" version="0" value="407, Range_1746" />
			</rt_info>
			<input>
				<port id="0" precision="FP32">
					<dim>1</dim>
					<dim>160</dim>
					<dim>32</dim>
					<dim>32</dim>
				</port>
				<port id="1" precision="I64">
					<dim>2</dim>
				</port>
			</input>
			<output>
				<port id="2" precision="FP32" names="407">
					<dim>1</dim>
					<dim>160</dim>
					<dim>1</dim>
					<dim>1</dim>
				</port>
			</output>
		</layer>
		<layer id="180" name="blocks.2.1.se.conv_reduce.weight_compressed" type="Const" version="opset1">
			<data element_type="f16" shape="40, 160, 1, 1" offset="115708" size="12800" />
			<output>
				<port id="0" precision="FP16">
					<dim>40</dim>
					<dim>160</dim>
					<dim>1</dim>
					<dim>1</dim>
				</port>
			</output>
		</layer>
		<layer id="181" name="blocks.2.1.se.conv_reduce.weight" type="Convert" version="opset1">
			<data destination_type="f32" />
			<rt_info>
				<attribute name="decompression" version="0" />
				<attribute name="fused_names" version="0" value="blocks.2.1.se.conv_reduce.weight" />
			</rt_info>
			<input>
				<port id="0" precision="FP16">
					<dim>40</dim>
					<dim>160</dim>
					<dim>1</dim>
					<dim>1</dim>
				</port>
			</input>
			<output>
				<port id="1" precision="FP32" names="blocks.2.1.se.conv_reduce.weight">
					<dim>40</dim>
					<dim>160</dim>
					<dim>1</dim>
					<dim>1</dim>
				</port>
			</output>
		</layer>
		<layer id="182" name="Convolution_1771" type="Convolution" version="opset1">
			<data strides="1, 1" dilations="1, 1" pads_begin="0, 0" pads_end="0, 0" auto_pad="explicit" />
			<rt_info>
				<attribute name="fused_names" version="0" value="Convolution_1771" />
			</rt_info>
			<input>
				<port id="0" precision="FP32">
					<dim>1</dim>
					<dim>160</dim>
					<dim>1</dim>
					<dim>1</dim>
				</port>
				<port id="1" precision="FP32">
					<dim>40</dim>
					<dim>160</dim>
					<dim>1</dim>
					<dim>1</dim>
				</port>
			</input>
			<output>
				<port id="2" precision="FP32">
					<dim>1</dim>
					<dim>40</dim>
					<dim>1</dim>
					<dim>1</dim>
				</port>
			</output>
		</layer>
		<layer id="183" name="Reshape_1791_compressed" type="Const" version="opset1">
			<data element_type="f16" shape="1, 40, 1, 1" offset="128508" size="80" />
			<output>
				<port id="0" precision="FP16">
					<dim>1</dim>
					<dim>40</dim>
					<dim>1</dim>
					<dim>1</dim>
				</port>
			</output>
		</layer>
		<layer id="184" name="Reshape_1791" type="Convert" version="opset1">
			<data destination_type="f32" />
			<rt_info>
				<attribute name="decompression" version="0" />
			</rt_info>
			<input>
				<port id="0" precision="FP16">
					<dim>1</dim>
					<dim>40</dim>
					<dim>1</dim>
					<dim>1</dim>
				</port>
			</input>
			<output>
				<port id="1" precision="FP32">
					<dim>1</dim>
					<dim>40</dim>
					<dim>1</dim>
					<dim>1</dim>
				</port>
			</output>
		</layer>
		<layer id="185" name="408" type="Add" version="opset1">
			<data auto_broadcast="numpy" />
			<rt_info>
				<attribute name="fused_names" version="0" value="408, Concat_1790, Reshape_1791" />
			</rt_info>
			<input>
				<port id="0" precision="FP32">
					<dim>1</dim>
					<dim>40</dim>
					<dim>1</dim>
					<dim>1</dim>
				</port>
				<port id="1" precision="FP32">
					<dim>1</dim>
					<dim>40</dim>
					<dim>1</dim>
					<dim>1</dim>
				</port>
			</input>
			<output>
				<port id="2" precision="FP32" names="408">
					<dim>1</dim>
					<dim>40</dim>
					<dim>1</dim>
					<dim>1</dim>
				</port>
			</output>
		</layer>
		<layer id="186" name="409" type="ReLU" version="opset1">
			<rt_info>
				<attribute name="fused_names" version="0" value="409" />
			</rt_info>
			<input>
				<port id="0" precision="FP32">
					<dim>1</dim>
					<dim>40</dim>
					<dim>1</dim>
					<dim>1</dim>
				</port>
			</input>
			<output>
				<port id="1" precision="FP32" names="409">
					<dim>1</dim>
					<dim>40</dim>
					<dim>1</dim>
					<dim>1</dim>
				</port>
			</output>
		</layer>
		<layer id="187" name="blocks.2.1.se.conv_expand.weight_compressed" type="Const" version="opset1">
			<data element_type="f16" shape="160, 40, 1, 1" offset="128588" size="12800" />
			<output>
				<port id="0" precision="FP16">
					<dim>160</dim>
					<dim>40</dim>
					<dim>1</dim>
					<dim>1</dim>
				</port>
			</output>
		</layer>
		<layer id="188" name="blocks.2.1.se.conv_expand.weight" type="Convert" version="opset1">
			<data destination_type="f32" />
			<rt_info>
				<attribute name="decompression" version="0" />
				<attribute name="fused_names" version="0" value="blocks.2.1.se.conv_expand.weight" />
			</rt_info>
			<input>
				<port id="0" precision="FP16">
					<dim>160</dim>
					<dim>40</dim>
					<dim>1</dim>
					<dim>1</dim>
				</port>
			</input>
			<output>
				<port id="1" precision="FP32" names="blocks.2.1.se.conv_expand.weight">
					<dim>160</dim>
					<dim>40</dim>
					<dim>1</dim>
					<dim>1</dim>
				</port>
			</output>
		</layer>
		<layer id="189" name="Convolution_1820" type="Convolution" version="opset1">
			<data strides="1, 1" dilations="1, 1" pads_begin="0, 0" pads_end="0, 0" auto_pad="explicit" />
			<rt_info>
				<attribute name="fused_names" version="0" value="Convolution_1820" />
			</rt_info>
			<input>
				<port id="0" precision="FP32">
					<dim>1</dim>
					<dim>40</dim>
					<dim>1</dim>
					<dim>1</dim>
				</port>
				<port id="1" precision="FP32">
					<dim>160</dim>
					<dim>40</dim>
					<dim>1</dim>
					<dim>1</dim>
				</port>
			</input>
			<output>
				<port id="2" precision="FP32">
					<dim>1</dim>
					<dim>160</dim>
					<dim>1</dim>
					<dim>1</dim>
				</port>
			</output>
		</layer>
		<layer id="190" name="Reshape_1840_compressed" type="Const" version="opset1">
			<data element_type="f16" shape="1, 160, 1, 1" offset="141388" size="320" />
			<output>
				<port id="0" precision="FP16">
					<dim>1</dim>
					<dim>160</dim>
					<dim>1</dim>
					<dim>1</dim>
				</port>
			</output>
		</layer>
		<layer id="191" name="Reshape_1840" type="Convert" version="opset1">
			<data destination_type="f32" />
			<rt_info>
				<attribute name="decompression" version="0" />
			</rt_info>
			<input>
				<port id="0" precision="FP16">
					<dim>1</dim>
					<dim>160</dim>
					<dim>1</dim>
					<dim>1</dim>
				</port>
			</input>
			<output>
				<port id="1" precision="FP32">
					<dim>1</dim>
					<dim>160</dim>
					<dim>1</dim>
					<dim>1</dim>
				</port>
			</output>
		</layer>
		<layer id="192" name="410" type="Add" version="opset1">
			<data auto_broadcast="numpy" />
			<rt_info>
				<attribute name="fused_names" version="0" value="410, Concat_1839, Reshape_1840" />
			</rt_info>
			<input>
				<port id="0" precision="FP32">
					<dim>1</dim>
					<dim>160</dim>
					<dim>1</dim>
					<dim>1</dim>
				</port>
				<port id="1" precision="FP32">
					<dim>1</dim>
					<dim>160</dim>
					<dim>1</dim>
					<dim>1</dim>
				</port>
			</input>
			<output>
				<port id="2" precision="FP32" names="410">
					<dim>1</dim>
					<dim>160</dim>
					<dim>1</dim>
					<dim>1</dim>
				</port>
			</output>
		</layer>
		<layer id="193" name="417" type="HSigmoid" version="opset5">
			<rt_info>
				<attribute name="fused_names" version="0" value="412, 415, 417, Maximum_1869" />
			</rt_info>
			<input>
				<port id="0" precision="FP32">
					<dim>1</dim>
					<dim>160</dim>
					<dim>1</dim>
					<dim>1</dim>
				</port>
			</input>
			<output>
				<port id="1" precision="FP32" names="417">
					<dim>1</dim>
					<dim>160</dim>
					<dim>1</dim>
					<dim>1</dim>
				</port>
			</output>
		</layer>
		<layer id="194" name="418" type="Multiply" version="opset1">
			<data auto_broadcast="numpy" />
			<rt_info>
				<attribute name="fused_names" version="0" value="418" />
			</rt_info>
			<input>
				<port id="0" precision="FP32">
					<dim>1</dim>
					<dim>160</dim>
					<dim>32</dim>
					<dim>32</dim>
				</port>
				<port id="1" precision="FP32">
					<dim>1</dim>
					<dim>160</dim>
					<dim>1</dim>
					<dim>1</dim>
				</port>
			</input>
			<output>
				<port id="2" precision="FP32" names="418">
					<dim>1</dim>
					<dim>160</dim>
					<dim>32</dim>
					<dim>32</dim>
				</port>
			</output>
		</layer>
		<layer id="195" name="670_compressed" type="Const" version="opset1">
			<data element_type="f16" shape="40, 160, 1, 1" offset="141708" size="12800" />
			<output>
				<port id="0" precision="FP16">
					<dim>40</dim>
					<dim>160</dim>
					<dim>1</dim>
					<dim>1</dim>
				</port>
			</output>
		</layer>
		<layer id="196" name="670" type="Convert" version="opset1">
			<data destination_type="f32" />
			<rt_info>
				<attribute name="decompression" version="0" />
				<attribute name="fused_names" version="0" value="670" />
			</rt_info>
			<input>
				<port id="0" precision="FP16">
					<dim>40</dim>
					<dim>160</dim>
					<dim>1</dim>
					<dim>1</dim>
				</port>
			</input>
			<output>
				<port id="1" precision="FP32" names="670">
					<dim>40</dim>
					<dim>160</dim>
					<dim>1</dim>
					<dim>1</dim>
				</port>
			</output>
		</layer>
		<layer id="197" name="Convolution_1873" type="Convolution" version="opset1">
			<data strides="1, 1" dilations="1, 1" pads_begin="0, 0" pads_end="0, 0" auto_pad="explicit" />
			<rt_info>
				<attribute name="fused_names" version="0" value="Convolution_1873" />
			</rt_info>
			<input>
				<port id="0" precision="FP32">
					<dim>1</dim>
					<dim>160</dim>
					<dim>32</dim>
					<dim>32</dim>
				</port>
				<port id="1" precision="FP32">
					<dim>40</dim>
					<dim>160</dim>
					<dim>1</dim>
					<dim>1</dim>
				</port>
			</input>
			<output>
				<port id="2" precision="FP32">
					<dim>1</dim>
					<dim>40</dim>
					<dim>32</dim>
					<dim>32</dim>
				</port>
			</output>
		</layer>
		<layer id="198" name="Reshape_1893_compressed" type="Const" version="opset1">
			<data element_type="f16" shape="1, 40, 1, 1" offset="154508" size="80" />
			<output>
				<port id="0" precision="FP16">
					<dim>1</dim>
					<dim>40</dim>
					<dim>1</dim>
					<dim>1</dim>
				</port>
			</output>
		</layer>
		<layer id="199" name="Reshape_1893" type="Convert" version="opset1">
			<data destination_type="f32" />
			<rt_info>
				<attribute name="decompression" version="0" />
			</rt_info>
			<input>
				<port id="0" precision="FP16">
					<dim>1</dim>
					<dim>40</dim>
					<dim>1</dim>
					<dim>1</dim>
				</port>
			</input>
			<output>
				<port id="1" precision="FP32">
					<dim>1</dim>
					<dim>40</dim>
					<dim>1</dim>
					<dim>1</dim>
				</port>
			</output>
		</layer>
		<layer id="200" name="669" type="Add" version="opset1">
			<data auto_broadcast="numpy" />
			<rt_info>
				<attribute name="fused_names" version="0" value="669, Concat_1892, Reshape_1893" />
			</rt_info>
			<input>
				<port id="0" precision="FP32">
					<dim>1</dim>
					<dim>40</dim>
					<dim>32</dim>
					<dim>32</dim>
				</port>
				<port id="1" precision="FP32">
					<dim>1</dim>
					<dim>40</dim>
					<dim>1</dim>
					<dim>1</dim>
				</port>
			</input>
			<output>
				<port id="2" precision="FP32" names="669">
					<dim>1</dim>
					<dim>40</dim>
					<dim>32</dim>
					<dim>32</dim>
				</port>
			</output>
		</layer>
		<layer id="201" name="421" type="Add" version="opset1">
			<data auto_broadcast="numpy" />
			<rt_info>
				<attribute name="fused_names" version="0" value="421" />
			</rt_info>
			<input>
				<port id="0" precision="FP32">
					<dim>1</dim>
					<dim>40</dim>
					<dim>32</dim>
					<dim>32</dim>
				</port>
				<port id="1" precision="FP32">
					<dim>1</dim>
					<dim>40</dim>
					<dim>32</dim>
					<dim>32</dim>
				</port>
			</input>
			<output>
				<port id="2" precision="FP32" names="421">
					<dim>1</dim>
					<dim>40</dim>
					<dim>32</dim>
					<dim>32</dim>
				</port>
			</output>
		</layer>
		<layer id="202" name="673_compressed" type="Const" version="opset1">
			<data element_type="f16" shape="240, 40, 1, 1" offset="154588" size="19200" />
			<output>
				<port id="0" precision="FP16">
					<dim>240</dim>
					<dim>40</dim>
					<dim>1</dim>
					<dim>1</dim>
				</port>
			</output>
		</layer>
		<layer id="203" name="673" type="Convert" version="opset1">
			<data destination_type="f32" />
			<rt_info>
				<attribute name="decompression" version="0" />
				<attribute name="fused_names" version="0" value="673" />
			</rt_info>
			<input>
				<port id="0" precision="FP16">
					<dim>240</dim>
					<dim>40</dim>
					<dim>1</dim>
					<dim>1</dim>
				</port>
			</input>
			<output>
				<port id="1" precision="FP32" names="673">
					<dim>240</dim>
					<dim>40</dim>
					<dim>1</dim>
					<dim>1</dim>
				</port>
			</output>
		</layer>
		<layer id="204" name="Convolution_1922" type="Convolution" version="opset1">
			<data strides="1, 1" dilations="1, 1" pads_begin="0, 0" pads_end="0, 0" auto_pad="explicit" />
			<rt_info>
				<attribute name="fused_names" version="0" value="Convolution_1922" />
			</rt_info>
			<input>
				<port id="0" precision="FP32">
					<dim>1</dim>
					<dim>40</dim>
					<dim>32</dim>
					<dim>32</dim>
				</port>
				<port id="1" precision="FP32">
					<dim>240</dim>
					<dim>40</dim>
					<dim>1</dim>
					<dim>1</dim>
				</port>
			</input>
			<output>
				<port id="2" precision="FP32">
					<dim>1</dim>
					<dim>240</dim>
					<dim>32</dim>
					<dim>32</dim>
				</port>
			</output>
		</layer>
		<layer id="205" name="Reshape_1942_compressed" type="Const" version="opset1">
			<data element_type="f16" shape="1, 240, 1, 1" offset="173788" size="480" />
			<output>
				<port id="0" precision="FP16">
					<dim>1</dim>
					<dim>240</dim>
					<dim>1</dim>
					<dim>1</dim>
				</port>
			</output>
		</layer>
		<layer id="206" name="Reshape_1942" type="Convert" version="opset1">
			<data destination_type="f32" />
			<rt_info>
				<attribute name="decompression" version="0" />
			</rt_info>
			<input>
				<port id="0" precision="FP16">
					<dim>1</dim>
					<dim>240</dim>
					<dim>1</dim>
					<dim>1</dim>
				</port>
			</input>
			<output>
				<port id="1" precision="FP32">
					<dim>1</dim>
					<dim>240</dim>
					<dim>1</dim>
					<dim>1</dim>
				</port>
			</output>
		</layer>
		<layer id="207" name="672" type="Add" version="opset1">
			<data auto_broadcast="numpy" />
			<rt_info>
				<attribute name="fused_names" version="0" value="672, Concat_1941, Reshape_1942" />
			</rt_info>
			<input>
				<port id="0" precision="FP32">
					<dim>1</dim>
					<dim>240</dim>
					<dim>32</dim>
					<dim>32</dim>
				</port>
				<port id="1" precision="FP32">
					<dim>1</dim>
					<dim>240</dim>
					<dim>1</dim>
					<dim>1</dim>
				</port>
			</input>
			<output>
				<port id="2" precision="FP32" names="672">
					<dim>1</dim>
					<dim>240</dim>
					<dim>32</dim>
					<dim>32</dim>
				</port>
			</output>
		</layer>
		<layer id="208" name="425" type="Swish" version="opset4">
			<rt_info>
				<attribute name="fused_names" version="0" value="424, 425" />
			</rt_info>
			<input>
				<port id="0" precision="FP32">
					<dim>1</dim>
					<dim>240</dim>
					<dim>32</dim>
					<dim>32</dim>
				</port>
			</input>
			<output>
				<port id="1" precision="FP32" names="425">
					<dim>1</dim>
					<dim>240</dim>
					<dim>32</dim>
					<dim>32</dim>
				</port>
			</output>
		</layer>
		<layer id="209" name="Reshape_1979_compressed" type="Const" version="opset1">
			<data element_type="f16" shape="240, 1, 1, 7, 7" offset="174268" size="23520" />
			<output>
				<port id="0" precision="FP16">
					<dim>240</dim>
					<dim>1</dim>
					<dim>1</dim>
					<dim>7</dim>
					<dim>7</dim>
				</port>
			</output>
		</layer>
		<layer id="210" name="Reshape_1979" type="Convert" version="opset1">
			<data destination_type="f32" />
			<rt_info>
				<attribute name="decompression" version="0" />
			</rt_info>
			<input>
				<port id="0" precision="FP16">
					<dim>240</dim>
					<dim>1</dim>
					<dim>1</dim>
					<dim>7</dim>
					<dim>7</dim>
				</port>
			</input>
			<output>
				<port id="1" precision="FP32">
					<dim>240</dim>
					<dim>1</dim>
					<dim>1</dim>
					<dim>7</dim>
					<dim>7</dim>
				</port>
			</output>
		</layer>
		<layer id="211" name="GroupConvolution_2045" type="GroupConvolution" version="opset1">
			<data strides="1, 1" pads_begin="3, 3" pads_end="3, 3" dilations="1, 1" auto_pad="explicit" />
			<rt_info>
				<attribute name="fused_names" version="0" value="GroupConvolution_2045, Reshape_1979" />
			</rt_info>
			<input>
				<port id="0" precision="FP32">
					<dim>1</dim>
					<dim>240</dim>
					<dim>32</dim>
					<dim>32</dim>
				</port>
				<port id="1" precision="FP32">
					<dim>240</dim>
					<dim>1</dim>
					<dim>1</dim>
					<dim>7</dim>
					<dim>7</dim>
				</port>
			</input>
			<output>
				<port id="2" precision="FP32">
					<dim>1</dim>
					<dim>240</dim>
					<dim>32</dim>
					<dim>32</dim>
				</port>
			</output>
		</layer>
		<layer id="212" name="Reshape_2065_compressed" type="Const" version="opset1">
			<data element_type="f16" shape="1, 240, 1, 1" offset="197788" size="480" />
			<output>
				<port id="0" precision="FP16">
					<dim>1</dim>
					<dim>240</dim>
					<dim>1</dim>
					<dim>1</dim>
				</port>
			</output>
		</layer>
		<layer id="213" name="Reshape_2065" type="Convert" version="opset1">
			<data destination_type="f32" />
			<rt_info>
				<attribute name="decompression" version="0" />
			</rt_info>
			<input>
				<port id="0" precision="FP16">
					<dim>1</dim>
					<dim>240</dim>
					<dim>1</dim>
					<dim>1</dim>
				</port>
			</input>
			<output>
				<port id="1" precision="FP32">
					<dim>1</dim>
					<dim>240</dim>
					<dim>1</dim>
					<dim>1</dim>
				</port>
			</output>
		</layer>
		<layer id="214" name="675" type="Add" version="opset1">
			<data auto_broadcast="numpy" />
			<rt_info>
				<attribute name="fused_names" version="0" value="675, Concat_2064, Reshape_2065" />
			</rt_info>
			<input>
				<port id="0" precision="FP32">
					<dim>1</dim>
					<dim>240</dim>
					<dim>32</dim>
					<dim>32</dim>
				</port>
				<port id="1" precision="FP32">
					<dim>1</dim>
					<dim>240</dim>
					<dim>1</dim>
					<dim>1</dim>
				</port>
			</input>
			<output>
				<port id="2" precision="FP32" names="675">
					<dim>1</dim>
					<dim>240</dim>
					<dim>32</dim>
					<dim>32</dim>
				</port>
			</output>
		</layer>
		<layer id="215" name="429" type="Swish" version="opset4">
			<rt_info>
				<attribute name="fused_names" version="0" value="428, 429" />
			</rt_info>
			<input>
				<port id="0" precision="FP32">
					<dim>1</dim>
					<dim>240</dim>
					<dim>32</dim>
					<dim>32</dim>
				</port>
			</input>
			<output>
				<port id="1" precision="FP32" names="429">
					<dim>1</dim>
					<dim>240</dim>
					<dim>32</dim>
					<dim>32</dim>
				</port>
			</output>
		</layer>
		<layer id="216" name="Range_2102" type="Const" version="opset1">
			<data element_type="i64" shape="2" offset="1292" size="16" />
			<output>
				<port id="0" precision="I64">
					<dim>2</dim>
				</port>
			</output>
		</layer>
		<layer id="217" name="430" type="ReduceMean" version="opset1">
			<data keep_dims="true" />
			<rt_info>
				<attribute name="fused_names" version="0" value="430, Range_2102" />
			</rt_info>
			<input>
				<port id="0" precision="FP32">
					<dim>1</dim>
					<dim>240</dim>
					<dim>32</dim>
					<dim>32</dim>
				</port>
				<port id="1" precision="I64">
					<dim>2</dim>
				</port>
			</input>
			<output>
				<port id="2" precision="FP32" names="430">
					<dim>1</dim>
					<dim>240</dim>
					<dim>1</dim>
					<dim>1</dim>
				</port>
			</output>
		</layer>
		<layer id="218" name="blocks.2.2.se.conv_reduce.weight_compressed" type="Const" version="opset1">
			<data element_type="f16" shape="64, 240, 1, 1" offset="198268" size="30720" />
			<output>
				<port id="0" precision="FP16">
					<dim>64</dim>
					<dim>240</dim>
					<dim>1</dim>
					<dim>1</dim>
				</port>
			</output>
		</layer>
		<layer id="219" name="blocks.2.2.se.conv_reduce.weight" type="Convert" version="opset1">
			<data destination_type="f32" />
			<rt_info>
				<attribute name="decompression" version="0" />
				<attribute name="fused_names" version="0" value="blocks.2.2.se.conv_reduce.weight" />
			</rt_info>
			<input>
				<port id="0" precision="FP16">
					<dim>64</dim>
					<dim>240</dim>
					<dim>1</dim>
					<dim>1</dim>
				</port>
			</input>
			<output>
				<port id="1" precision="FP32" names="blocks.2.2.se.conv_reduce.weight">
					<dim>64</dim>
					<dim>240</dim>
					<dim>1</dim>
					<dim>1</dim>
				</port>
			</output>
		</layer>
		<layer id="220" name="Convolution_2127" type="Convolution" version="opset1">
			<data strides="1, 1" dilations="1, 1" pads_begin="0, 0" pads_end="0, 0" auto_pad="explicit" />
			<rt_info>
				<attribute name="fused_names" version="0" value="Convolution_2127" />
			</rt_info>
			<input>
				<port id="0" precision="FP32">
					<dim>1</dim>
					<dim>240</dim>
					<dim>1</dim>
					<dim>1</dim>
				</port>
				<port id="1" precision="FP32">
					<dim>64</dim>
					<dim>240</dim>
					<dim>1</dim>
					<dim>1</dim>
				</port>
			</input>
			<output>
				<port id="2" precision="FP32">
					<dim>1</dim>
					<dim>64</dim>
					<dim>1</dim>
					<dim>1</dim>
				</port>
			</output>
		</layer>
		<layer id="221" name="Reshape_2147_compressed" type="Const" version="opset1">
			<data element_type="f16" shape="1, 64, 1, 1" offset="228988" size="128" />
			<output>
				<port id="0" precision="FP16">
					<dim>1</dim>
					<dim>64</dim>
					<dim>1</dim>
					<dim>1</dim>
				</port>
			</output>
		</layer>
		<layer id="222" name="Reshape_2147" type="Convert" version="opset1">
			<data destination_type="f32" />
			<rt_info>
				<attribute name="decompression" version="0" />
			</rt_info>
			<input>
				<port id="0" precision="FP16">
					<dim>1</dim>
					<dim>64</dim>
					<dim>1</dim>
					<dim>1</dim>
				</port>
			</input>
			<output>
				<port id="1" precision="FP32">
					<dim>1</dim>
					<dim>64</dim>
					<dim>1</dim>
					<dim>1</dim>
				</port>
			</output>
		</layer>
		<layer id="223" name="431" type="Add" version="opset1">
			<data auto_broadcast="numpy" />
			<rt_info>
				<attribute name="fused_names" version="0" value="431, Concat_2146, Reshape_2147" />
			</rt_info>
			<input>
				<port id="0" precision="FP32">
					<dim>1</dim>
					<dim>64</dim>
					<dim>1</dim>
					<dim>1</dim>
				</port>
				<port id="1" precision="FP32">
					<dim>1</dim>
					<dim>64</dim>
					<dim>1</dim>
					<dim>1</dim>
				</port>
			</input>
			<output>
				<port id="2" precision="FP32" names="431">
					<dim>1</dim>
					<dim>64</dim>
					<dim>1</dim>
					<dim>1</dim>
				</port>
			</output>
		</layer>
		<layer id="224" name="432" type="ReLU" version="opset1">
			<rt_info>
				<attribute name="fused_names" version="0" value="432" />
			</rt_info>
			<input>
				<port id="0" precision="FP32">
					<dim>1</dim>
					<dim>64</dim>
					<dim>1</dim>
					<dim>1</dim>
				</port>
			</input>
			<output>
				<port id="1" precision="FP32" names="432">
					<dim>1</dim>
					<dim>64</dim>
					<dim>1</dim>
					<dim>1</dim>
				</port>
			</output>
		</layer>
		<layer id="225" name="blocks.2.2.se.conv_expand.weight_compressed" type="Const" version="opset1">
			<data element_type="f16" shape="240, 64, 1, 1" offset="229116" size="30720" />
			<output>
				<port id="0" precision="FP16">
					<dim>240</dim>
					<dim>64</dim>
					<dim>1</dim>
					<dim>1</dim>
				</port>
			</output>
		</layer>
		<layer id="226" name="blocks.2.2.se.conv_expand.weight" type="Convert" version="opset1">
			<data destination_type="f32" />
			<rt_info>
				<attribute name="decompression" version="0" />
				<attribute name="fused_names" version="0" value="blocks.2.2.se.conv_expand.weight" />
			</rt_info>
			<input>
				<port id="0" precision="FP16">
					<dim>240</dim>
					<dim>64</dim>
					<dim>1</dim>
					<dim>1</dim>
				</port>
			</input>
			<output>
				<port id="1" precision="FP32" names="blocks.2.2.se.conv_expand.weight">
					<dim>240</dim>
					<dim>64</dim>
					<dim>1</dim>
					<dim>1</dim>
				</port>
			</output>
		</layer>
		<layer id="227" name="Convolution_2176" type="Convolution" version="opset1">
			<data strides="1, 1" dilations="1, 1" pads_begin="0, 0" pads_end="0, 0" auto_pad="explicit" />
			<rt_info>
				<attribute name="fused_names" version="0" value="Convolution_2176" />
			</rt_info>
			<input>
				<port id="0" precision="FP32">
					<dim>1</dim>
					<dim>64</dim>
					<dim>1</dim>
					<dim>1</dim>
				</port>
				<port id="1" precision="FP32">
					<dim>240</dim>
					<dim>64</dim>
					<dim>1</dim>
					<dim>1</dim>
				</port>
			</input>
			<output>
				<port id="2" precision="FP32">
					<dim>1</dim>
					<dim>240</dim>
					<dim>1</dim>
					<dim>1</dim>
				</port>
			</output>
		</layer>
		<layer id="228" name="Reshape_2196_compressed" type="Const" version="opset1">
			<data element_type="f16" shape="1, 240, 1, 1" offset="259836" size="480" />
			<output>
				<port id="0" precision="FP16">
					<dim>1</dim>
					<dim>240</dim>
					<dim>1</dim>
					<dim>1</dim>
				</port>
			</output>
		</layer>
		<layer id="229" name="Reshape_2196" type="Convert" version="opset1">
			<data destination_type="f32" />
			<rt_info>
				<attribute name="decompression" version="0" />
			</rt_info>
			<input>
				<port id="0" precision="FP16">
					<dim>1</dim>
					<dim>240</dim>
					<dim>1</dim>
					<dim>1</dim>
				</port>
			</input>
			<output>
				<port id="1" precision="FP32">
					<dim>1</dim>
					<dim>240</dim>
					<dim>1</dim>
					<dim>1</dim>
				</port>
			</output>
		</layer>
		<layer id="230" name="433" type="Add" version="opset1">
			<data auto_broadcast="numpy" />
			<rt_info>
				<attribute name="fused_names" version="0" value="433, Concat_2195, Reshape_2196" />
			</rt_info>
			<input>
				<port id="0" precision="FP32">
					<dim>1</dim>
					<dim>240</dim>
					<dim>1</dim>
					<dim>1</dim>
				</port>
				<port id="1" precision="FP32">
					<dim>1</dim>
					<dim>240</dim>
					<dim>1</dim>
					<dim>1</dim>
				</port>
			</input>
			<output>
				<port id="2" precision="FP32" names="433">
					<dim>1</dim>
					<dim>240</dim>
					<dim>1</dim>
					<dim>1</dim>
				</port>
			</output>
		</layer>
		<layer id="231" name="440" type="HSigmoid" version="opset5">
			<rt_info>
				<attribute name="fused_names" version="0" value="435, 438, 440, Maximum_2225" />
			</rt_info>
			<input>
				<port id="0" precision="FP32">
					<dim>1</dim>
					<dim>240</dim>
					<dim>1</dim>
					<dim>1</dim>
				</port>
			</input>
			<output>
				<port id="1" precision="FP32" names="440">
					<dim>1</dim>
					<dim>240</dim>
					<dim>1</dim>
					<dim>1</dim>
				</port>
			</output>
		</layer>
		<layer id="232" name="441" type="Multiply" version="opset1">
			<data auto_broadcast="numpy" />
			<rt_info>
				<attribute name="fused_names" version="0" value="441" />
			</rt_info>
			<input>
				<port id="0" precision="FP32">
					<dim>1</dim>
					<dim>240</dim>
					<dim>32</dim>
					<dim>32</dim>
				</port>
				<port id="1" precision="FP32">
					<dim>1</dim>
					<dim>240</dim>
					<dim>1</dim>
					<dim>1</dim>
				</port>
			</input>
			<output>
				<port id="2" precision="FP32" names="441">
					<dim>1</dim>
					<dim>240</dim>
					<dim>32</dim>
					<dim>32</dim>
				</port>
			</output>
		</layer>
		<layer id="233" name="679_compressed" type="Const" version="opset1">
			<data element_type="f16" shape="40, 240, 1, 1" offset="260316" size="19200" />
			<output>
				<port id="0" precision="FP16">
					<dim>40</dim>
					<dim>240</dim>
					<dim>1</dim>
					<dim>1</dim>
				</port>
			</output>
		</layer>
		<layer id="234" name="679" type="Convert" version="opset1">
			<data destination_type="f32" />
			<rt_info>
				<attribute name="decompression" version="0" />
				<attribute name="fused_names" version="0" value="679" />
			</rt_info>
			<input>
				<port id="0" precision="FP16">
					<dim>40</dim>
					<dim>240</dim>
					<dim>1</dim>
					<dim>1</dim>
				</port>
			</input>
			<output>
				<port id="1" precision="FP32" names="679">
					<dim>40</dim>
					<dim>240</dim>
					<dim>1</dim>
					<dim>1</dim>
				</port>
			</output>
		</layer>
		<layer id="235" name="Convolution_2229" type="Convolution" version="opset1">
			<data strides="1, 1" dilations="1, 1" pads_begin="0, 0" pads_end="0, 0" auto_pad="explicit" />
			<rt_info>
				<attribute name="fused_names" version="0" value="Convolution_2229" />
			</rt_info>
			<input>
				<port id="0" precision="FP32">
					<dim>1</dim>
					<dim>240</dim>
					<dim>32</dim>
					<dim>32</dim>
				</port>
				<port id="1" precision="FP32">
					<dim>40</dim>
					<dim>240</dim>
					<dim>1</dim>
					<dim>1</dim>
				</port>
			</input>
			<output>
				<port id="2" precision="FP32">
					<dim>1</dim>
					<dim>40</dim>
					<dim>32</dim>
					<dim>32</dim>
				</port>
			</output>
		</layer>
		<layer id="236" name="Reshape_2249_compressed" type="Const" version="opset1">
			<data element_type="f16" shape="1, 40, 1, 1" offset="279516" size="80" />
			<output>
				<port id="0" precision="FP16">
					<dim>1</dim>
					<dim>40</dim>
					<dim>1</dim>
					<dim>1</dim>
				</port>
			</output>
		</layer>
		<layer id="237" name="Reshape_2249" type="Convert" version="opset1">
			<data destination_type="f32" />
			<rt_info>
				<attribute name="decompression" version="0" />
			</rt_info>
			<input>
				<port id="0" precision="FP16">
					<dim>1</dim>
					<dim>40</dim>
					<dim>1</dim>
					<dim>1</dim>
				</port>
			</input>
			<output>
				<port id="1" precision="FP32">
					<dim>1</dim>
					<dim>40</dim>
					<dim>1</dim>
					<dim>1</dim>
				</port>
			</output>
		</layer>
		<layer id="238" name="678" type="Add" version="opset1">
			<data auto_broadcast="numpy" />
			<rt_info>
				<attribute name="fused_names" version="0" value="678, Concat_2248, Reshape_2249" />
			</rt_info>
			<input>
				<port id="0" precision="FP32">
					<dim>1</dim>
					<dim>40</dim>
					<dim>32</dim>
					<dim>32</dim>
				</port>
				<port id="1" precision="FP32">
					<dim>1</dim>
					<dim>40</dim>
					<dim>1</dim>
					<dim>1</dim>
				</port>
			</input>
			<output>
				<port id="2" precision="FP32" names="678">
					<dim>1</dim>
					<dim>40</dim>
					<dim>32</dim>
					<dim>32</dim>
				</port>
			</output>
		</layer>
		<layer id="239" name="444" type="Add" version="opset1">
			<data auto_broadcast="numpy" />
			<rt_info>
				<attribute name="fused_names" version="0" value="444" />
			</rt_info>
			<input>
				<port id="0" precision="FP32">
					<dim>1</dim>
					<dim>40</dim>
					<dim>32</dim>
					<dim>32</dim>
				</port>
				<port id="1" precision="FP32">
					<dim>1</dim>
					<dim>40</dim>
					<dim>32</dim>
					<dim>32</dim>
				</port>
			</input>
			<output>
				<port id="2" precision="FP32" names="444">
					<dim>1</dim>
					<dim>40</dim>
					<dim>32</dim>
					<dim>32</dim>
				</port>
			</output>
		</layer>
		<layer id="240" name="682_compressed" type="Const" version="opset1">
			<data element_type="f16" shape="240, 40, 1, 1" offset="279596" size="19200" />
			<output>
				<port id="0" precision="FP16">
					<dim>240</dim>
					<dim>40</dim>
					<dim>1</dim>
					<dim>1</dim>
				</port>
			</output>
		</layer>
		<layer id="241" name="682" type="Convert" version="opset1">
			<data destination_type="f32" />
			<rt_info>
				<attribute name="decompression" version="0" />
				<attribute name="fused_names" version="0" value="682" />
			</rt_info>
			<input>
				<port id="0" precision="FP16">
					<dim>240</dim>
					<dim>40</dim>
					<dim>1</dim>
					<dim>1</dim>
				</port>
			</input>
			<output>
				<port id="1" precision="FP32" names="682">
					<dim>240</dim>
					<dim>40</dim>
					<dim>1</dim>
					<dim>1</dim>
				</port>
			</output>
		</layer>
		<layer id="242" name="Convolution_2278" type="Convolution" version="opset1">
			<data strides="1, 1" dilations="1, 1" pads_begin="0, 0" pads_end="0, 0" auto_pad="explicit" />
			<rt_info>
				<attribute name="fused_names" version="0" value="Convolution_2278" />
			</rt_info>
			<input>
				<port id="0" precision="FP32">
					<dim>1</dim>
					<dim>40</dim>
					<dim>32</dim>
					<dim>32</dim>
				</port>
				<port id="1" precision="FP32">
					<dim>240</dim>
					<dim>40</dim>
					<dim>1</dim>
					<dim>1</dim>
				</port>
			</input>
			<output>
				<port id="2" precision="FP32">
					<dim>1</dim>
					<dim>240</dim>
					<dim>32</dim>
					<dim>32</dim>
				</port>
			</output>
		</layer>
		<layer id="243" name="Reshape_2298_compressed" type="Const" version="opset1">
			<data element_type="f16" shape="1, 240, 1, 1" offset="298796" size="480" />
			<output>
				<port id="0" precision="FP16">
					<dim>1</dim>
					<dim>240</dim>
					<dim>1</dim>
					<dim>1</dim>
				</port>
			</output>
		</layer>
		<layer id="244" name="Reshape_2298" type="Convert" version="opset1">
			<data destination_type="f32" />
			<rt_info>
				<attribute name="decompression" version="0" />
			</rt_info>
			<input>
				<port id="0" precision="FP16">
					<dim>1</dim>
					<dim>240</dim>
					<dim>1</dim>
					<dim>1</dim>
				</port>
			</input>
			<output>
				<port id="1" precision="FP32">
					<dim>1</dim>
					<dim>240</dim>
					<dim>1</dim>
					<dim>1</dim>
				</port>
			</output>
		</layer>
		<layer id="245" name="681" type="Add" version="opset1">
			<data auto_broadcast="numpy" />
			<rt_info>
				<attribute name="fused_names" version="0" value="681, Concat_2297, Reshape_2298" />
			</rt_info>
			<input>
				<port id="0" precision="FP32">
					<dim>1</dim>
					<dim>240</dim>
					<dim>32</dim>
					<dim>32</dim>
				</port>
				<port id="1" precision="FP32">
					<dim>1</dim>
					<dim>240</dim>
					<dim>1</dim>
					<dim>1</dim>
				</port>
			</input>
			<output>
				<port id="2" precision="FP32" names="681">
					<dim>1</dim>
					<dim>240</dim>
					<dim>32</dim>
					<dim>32</dim>
				</port>
			</output>
		</layer>
		<layer id="246" name="448" type="Swish" version="opset4">
			<rt_info>
				<attribute name="fused_names" version="0" value="447, 448" />
			</rt_info>
			<input>
				<port id="0" precision="FP32">
					<dim>1</dim>
					<dim>240</dim>
					<dim>32</dim>
					<dim>32</dim>
				</port>
			</input>
			<output>
				<port id="1" precision="FP32" names="448">
					<dim>1</dim>
					<dim>240</dim>
					<dim>32</dim>
					<dim>32</dim>
				</port>
			</output>
		</layer>
		<layer id="247" name="Reshape_2335_compressed" type="Const" version="opset1">
			<data element_type="f16" shape="240, 1, 1, 3, 3" offset="299276" size="4320" />
			<output>
				<port id="0" precision="FP16">
					<dim>240</dim>
					<dim>1</dim>
					<dim>1</dim>
					<dim>3</dim>
					<dim>3</dim>
				</port>
			</output>
		</layer>
		<layer id="248" name="Reshape_2335" type="Convert" version="opset1">
			<data destination_type="f32" />
			<rt_info>
				<attribute name="decompression" version="0" />
			</rt_info>
			<input>
				<port id="0" precision="FP16">
					<dim>240</dim>
					<dim>1</dim>
					<dim>1</dim>
					<dim>3</dim>
					<dim>3</dim>
				</port>
			</input>
			<output>
				<port id="1" precision="FP32">
					<dim>240</dim>
					<dim>1</dim>
					<dim>1</dim>
					<dim>3</dim>
					<dim>3</dim>
				</port>
			</output>
		</layer>
		<layer id="249" name="GroupConvolution_2401" type="GroupConvolution" version="opset1">
			<data strides="1, 1" pads_begin="1, 1" pads_end="1, 1" dilations="1, 1" auto_pad="explicit" />
			<rt_info>
				<attribute name="fused_names" version="0" value="GroupConvolution_2401, Reshape_2335" />
			</rt_info>
			<input>
				<port id="0" precision="FP32">
					<dim>1</dim>
					<dim>240</dim>
					<dim>32</dim>
					<dim>32</dim>
				</port>
				<port id="1" precision="FP32">
					<dim>240</dim>
					<dim>1</dim>
					<dim>1</dim>
					<dim>3</dim>
					<dim>3</dim>
				</port>
			</input>
			<output>
				<port id="2" precision="FP32">
					<dim>1</dim>
					<dim>240</dim>
					<dim>32</dim>
					<dim>32</dim>
				</port>
			</output>
		</layer>
		<layer id="250" name="Reshape_2421_compressed" type="Const" version="opset1">
			<data element_type="f16" shape="1, 240, 1, 1" offset="303596" size="480" />
			<output>
				<port id="0" precision="FP16">
					<dim>1</dim>
					<dim>240</dim>
					<dim>1</dim>
					<dim>1</dim>
				</port>
			</output>
		</layer>
		<layer id="251" name="Reshape_2421" type="Convert" version="opset1">
			<data destination_type="f32" />
			<rt_info>
				<attribute name="decompression" version="0" />
			</rt_info>
			<input>
				<port id="0" precision="FP16">
					<dim>1</dim>
					<dim>240</dim>
					<dim>1</dim>
					<dim>1</dim>
				</port>
			</input>
			<output>
				<port id="1" precision="FP32">
					<dim>1</dim>
					<dim>240</dim>
					<dim>1</dim>
					<dim>1</dim>
				</port>
			</output>
		</layer>
		<layer id="252" name="684" type="Add" version="opset1">
			<data auto_broadcast="numpy" />
			<rt_info>
				<attribute name="fused_names" version="0" value="684, Concat_2420, Reshape_2421" />
			</rt_info>
			<input>
				<port id="0" precision="FP32">
					<dim>1</dim>
					<dim>240</dim>
					<dim>32</dim>
					<dim>32</dim>
				</port>
				<port id="1" precision="FP32">
					<dim>1</dim>
					<dim>240</dim>
					<dim>1</dim>
					<dim>1</dim>
				</port>
			</input>
			<output>
				<port id="2" precision="FP32" names="684">
					<dim>1</dim>
					<dim>240</dim>
					<dim>32</dim>
					<dim>32</dim>
				</port>
			</output>
		</layer>
		<layer id="253" name="452" type="Swish" version="opset4">
			<rt_info>
				<attribute name="fused_names" version="0" value="451, 452" />
			</rt_info>
			<input>
				<port id="0" precision="FP32">
					<dim>1</dim>
					<dim>240</dim>
					<dim>32</dim>
					<dim>32</dim>
				</port>
			</input>
			<output>
				<port id="1" precision="FP32" names="452">
					<dim>1</dim>
					<dim>240</dim>
					<dim>32</dim>
					<dim>32</dim>
				</port>
			</output>
		</layer>
		<layer id="254" name="Range_2458" type="Const" version="opset1">
			<data element_type="i64" shape="2" offset="1292" size="16" />
			<output>
				<port id="0" precision="I64">
					<dim>2</dim>
				</port>
			</output>
		</layer>
		<layer id="255" name="453" type="ReduceMean" version="opset1">
			<data keep_dims="true" />
			<rt_info>
				<attribute name="fused_names" version="0" value="453, Range_2458" />
			</rt_info>
			<input>
				<port id="0" precision="FP32">
					<dim>1</dim>
					<dim>240</dim>
					<dim>32</dim>
					<dim>32</dim>
				</port>
				<port id="1" precision="I64">
					<dim>2</dim>
				</port>
			</input>
			<output>
				<port id="2" precision="FP32" names="453">
					<dim>1</dim>
					<dim>240</dim>
					<dim>1</dim>
					<dim>1</dim>
				</port>
			</output>
		</layer>
		<layer id="256" name="blocks.2.3.se.conv_reduce.weight_compressed" type="Const" version="opset1">
			<data element_type="f16" shape="64, 240, 1, 1" offset="304076" size="30720" />
			<output>
				<port id="0" precision="FP16">
					<dim>64</dim>
					<dim>240</dim>
					<dim>1</dim>
					<dim>1</dim>
				</port>
			</output>
		</layer>
		<layer id="257" name="blocks.2.3.se.conv_reduce.weight" type="Convert" version="opset1">
			<data destination_type="f32" />
			<rt_info>
				<attribute name="decompression" version="0" />
				<attribute name="fused_names" version="0" value="blocks.2.3.se.conv_reduce.weight" />
			</rt_info>
			<input>
				<port id="0" precision="FP16">
					<dim>64</dim>
					<dim>240</dim>
					<dim>1</dim>
					<dim>1</dim>
				</port>
			</input>
			<output>
				<port id="1" precision="FP32" names="blocks.2.3.se.conv_reduce.weight">
					<dim>64</dim>
					<dim>240</dim>
					<dim>1</dim>
					<dim>1</dim>
				</port>
			</output>
		</layer>
		<layer id="258" name="Convolution_2483" type="Convolution" version="opset1">
			<data strides="1, 1" dilations="1, 1" pads_begin="0, 0" pads_end="0, 0" auto_pad="explicit" />
			<rt_info>
				<attribute name="fused_names" version="0" value="Convolution_2483" />
			</rt_info>
			<input>
				<port id="0" precision="FP32">
					<dim>1</dim>
					<dim>240</dim>
					<dim>1</dim>
					<dim>1</dim>
				</port>
				<port id="1" precision="FP32">
					<dim>64</dim>
					<dim>240</dim>
					<dim>1</dim>
					<dim>1</dim>
				</port>
			</input>
			<output>
				<port id="2" precision="FP32">
					<dim>1</dim>
					<dim>64</dim>
					<dim>1</dim>
					<dim>1</dim>
				</port>
			</output>
		</layer>
		<layer id="259" name="Reshape_2503_compressed" type="Const" version="opset1">
			<data element_type="f16" shape="1, 64, 1, 1" offset="334796" size="128" />
			<output>
				<port id="0" precision="FP16">
					<dim>1</dim>
					<dim>64</dim>
					<dim>1</dim>
					<dim>1</dim>
				</port>
			</output>
		</layer>
		<layer id="260" name="Reshape_2503" type="Convert" version="opset1">
			<data destination_type="f32" />
			<rt_info>
				<attribute name="decompression" version="0" />
			</rt_info>
			<input>
				<port id="0" precision="FP16">
					<dim>1</dim>
					<dim>64</dim>
					<dim>1</dim>
					<dim>1</dim>
				</port>
			</input>
			<output>
				<port id="1" precision="FP32">
					<dim>1</dim>
					<dim>64</dim>
					<dim>1</dim>
					<dim>1</dim>
				</port>
			</output>
		</layer>
		<layer id="261" name="454" type="Add" version="opset1">
			<data auto_broadcast="numpy" />
			<rt_info>
				<attribute name="fused_names" version="0" value="454, Concat_2502, Reshape_2503" />
			</rt_info>
			<input>
				<port id="0" precision="FP32">
					<dim>1</dim>
					<dim>64</dim>
					<dim>1</dim>
					<dim>1</dim>
				</port>
				<port id="1" precision="FP32">
					<dim>1</dim>
					<dim>64</dim>
					<dim>1</dim>
					<dim>1</dim>
				</port>
			</input>
			<output>
				<port id="2" precision="FP32" names="454">
					<dim>1</dim>
					<dim>64</dim>
					<dim>1</dim>
					<dim>1</dim>
				</port>
			</output>
		</layer>
		<layer id="262" name="455" type="ReLU" version="opset1">
			<rt_info>
				<attribute name="fused_names" version="0" value="455" />
			</rt_info>
			<input>
				<port id="0" precision="FP32">
					<dim>1</dim>
					<dim>64</dim>
					<dim>1</dim>
					<dim>1</dim>
				</port>
			</input>
			<output>
				<port id="1" precision="FP32" names="455">
					<dim>1</dim>
					<dim>64</dim>
					<dim>1</dim>
					<dim>1</dim>
				</port>
			</output>
		</layer>
		<layer id="263" name="blocks.2.3.se.conv_expand.weight_compressed" type="Const" version="opset1">
			<data element_type="f16" shape="240, 64, 1, 1" offset="334924" size="30720" />
			<output>
				<port id="0" precision="FP16">
					<dim>240</dim>
					<dim>64</dim>
					<dim>1</dim>
					<dim>1</dim>
				</port>
			</output>
		</layer>
		<layer id="264" name="blocks.2.3.se.conv_expand.weight" type="Convert" version="opset1">
			<data destination_type="f32" />
			<rt_info>
				<attribute name="decompression" version="0" />
				<attribute name="fused_names" version="0" value="blocks.2.3.se.conv_expand.weight" />
			</rt_info>
			<input>
				<port id="0" precision="FP16">
					<dim>240</dim>
					<dim>64</dim>
					<dim>1</dim>
					<dim>1</dim>
				</port>
			</input>
			<output>
				<port id="1" precision="FP32" names="blocks.2.3.se.conv_expand.weight">
					<dim>240</dim>
					<dim>64</dim>
					<dim>1</dim>
					<dim>1</dim>
				</port>
			</output>
		</layer>
		<layer id="265" name="Convolution_2532" type="Convolution" version="opset1">
			<data strides="1, 1" dilations="1, 1" pads_begin="0, 0" pads_end="0, 0" auto_pad="explicit" />
			<rt_info>
				<attribute name="fused_names" version="0" value="Convolution_2532" />
			</rt_info>
			<input>
				<port id="0" precision="FP32">
					<dim>1</dim>
					<dim>64</dim>
					<dim>1</dim>
					<dim>1</dim>
				</port>
				<port id="1" precision="FP32">
					<dim>240</dim>
					<dim>64</dim>
					<dim>1</dim>
					<dim>1</dim>
				</port>
			</input>
			<output>
				<port id="2" precision="FP32">
					<dim>1</dim>
					<dim>240</dim>
					<dim>1</dim>
					<dim>1</dim>
				</port>
			</output>
		</layer>
		<layer id="266" name="Reshape_2552_compressed" type="Const" version="opset1">
			<data element_type="f16" shape="1, 240, 1, 1" offset="365644" size="480" />
			<output>
				<port id="0" precision="FP16">
					<dim>1</dim>
					<dim>240</dim>
					<dim>1</dim>
					<dim>1</dim>
				</port>
			</output>
		</layer>
		<layer id="267" name="Reshape_2552" type="Convert" version="opset1">
			<data destination_type="f32" />
			<rt_info>
				<attribute name="decompression" version="0" />
			</rt_info>
			<input>
				<port id="0" precision="FP16">
					<dim>1</dim>
					<dim>240</dim>
					<dim>1</dim>
					<dim>1</dim>
				</port>
			</input>
			<output>
				<port id="1" precision="FP32">
					<dim>1</dim>
					<dim>240</dim>
					<dim>1</dim>
					<dim>1</dim>
				</port>
			</output>
		</layer>
		<layer id="268" name="456" type="Add" version="opset1">
			<data auto_broadcast="numpy" />
			<rt_info>
				<attribute name="fused_names" version="0" value="456, Concat_2551, Reshape_2552" />
			</rt_info>
			<input>
				<port id="0" precision="FP32">
					<dim>1</dim>
					<dim>240</dim>
					<dim>1</dim>
					<dim>1</dim>
				</port>
				<port id="1" precision="FP32">
					<dim>1</dim>
					<dim>240</dim>
					<dim>1</dim>
					<dim>1</dim>
				</port>
			</input>
			<output>
				<port id="2" precision="FP32" names="456">
					<dim>1</dim>
					<dim>240</dim>
					<dim>1</dim>
					<dim>1</dim>
				</port>
			</output>
		</layer>
		<layer id="269" name="463" type="HSigmoid" version="opset5">
			<rt_info>
				<attribute name="fused_names" version="0" value="458, 461, 463, Maximum_2581" />
			</rt_info>
			<input>
				<port id="0" precision="FP32">
					<dim>1</dim>
					<dim>240</dim>
					<dim>1</dim>
					<dim>1</dim>
				</port>
			</input>
			<output>
				<port id="1" precision="FP32" names="463">
					<dim>1</dim>
					<dim>240</dim>
					<dim>1</dim>
					<dim>1</dim>
				</port>
			</output>
		</layer>
		<layer id="270" name="464" type="Multiply" version="opset1">
			<data auto_broadcast="numpy" />
			<rt_info>
				<attribute name="fused_names" version="0" value="464" />
			</rt_info>
			<input>
				<port id="0" precision="FP32">
					<dim>1</dim>
					<dim>240</dim>
					<dim>32</dim>
					<dim>32</dim>
				</port>
				<port id="1" precision="FP32">
					<dim>1</dim>
					<dim>240</dim>
					<dim>1</dim>
					<dim>1</dim>
				</port>
			</input>
			<output>
				<port id="2" precision="FP32" names="464">
					<dim>1</dim>
					<dim>240</dim>
					<dim>32</dim>
					<dim>32</dim>
				</port>
			</output>
		</layer>
		<layer id="271" name="688_compressed" type="Const" version="opset1">
			<data element_type="f16" shape="40, 240, 1, 1" offset="366124" size="19200" />
			<output>
				<port id="0" precision="FP16">
					<dim>40</dim>
					<dim>240</dim>
					<dim>1</dim>
					<dim>1</dim>
				</port>
			</output>
		</layer>
		<layer id="272" name="688" type="Convert" version="opset1">
			<data destination_type="f32" />
			<rt_info>
				<attribute name="decompression" version="0" />
				<attribute name="fused_names" version="0" value="688" />
			</rt_info>
			<input>
				<port id="0" precision="FP16">
					<dim>40</dim>
					<dim>240</dim>
					<dim>1</dim>
					<dim>1</dim>
				</port>
			</input>
			<output>
				<port id="1" precision="FP32" names="688">
					<dim>40</dim>
					<dim>240</dim>
					<dim>1</dim>
					<dim>1</dim>
				</port>
			</output>
		</layer>
		<layer id="273" name="Convolution_2585" type="Convolution" version="opset1">
			<data strides="1, 1" dilations="1, 1" pads_begin="0, 0" pads_end="0, 0" auto_pad="explicit" />
			<rt_info>
				<attribute name="fused_names" version="0" value="Convolution_2585" />
			</rt_info>
			<input>
				<port id="0" precision="FP32">
					<dim>1</dim>
					<dim>240</dim>
					<dim>32</dim>
					<dim>32</dim>
				</port>
				<port id="1" precision="FP32">
					<dim>40</dim>
					<dim>240</dim>
					<dim>1</dim>
					<dim>1</dim>
				</port>
			</input>
			<output>
				<port id="2" precision="FP32">
					<dim>1</dim>
					<dim>40</dim>
					<dim>32</dim>
					<dim>32</dim>
				</port>
			</output>
		</layer>
		<layer id="274" name="Reshape_2605_compressed" type="Const" version="opset1">
			<data element_type="f16" shape="1, 40, 1, 1" offset="385324" size="80" />
			<output>
				<port id="0" precision="FP16">
					<dim>1</dim>
					<dim>40</dim>
					<dim>1</dim>
					<dim>1</dim>
				</port>
			</output>
		</layer>
		<layer id="275" name="Reshape_2605" type="Convert" version="opset1">
			<data destination_type="f32" />
			<rt_info>
				<attribute name="decompression" version="0" />
			</rt_info>
			<input>
				<port id="0" precision="FP16">
					<dim>1</dim>
					<dim>40</dim>
					<dim>1</dim>
					<dim>1</dim>
				</port>
			</input>
			<output>
				<port id="1" precision="FP32">
					<dim>1</dim>
					<dim>40</dim>
					<dim>1</dim>
					<dim>1</dim>
				</port>
			</output>
		</layer>
		<layer id="276" name="687" type="Add" version="opset1">
			<data auto_broadcast="numpy" />
			<rt_info>
				<attribute name="fused_names" version="0" value="687, Concat_2604, Reshape_2605" />
			</rt_info>
			<input>
				<port id="0" precision="FP32">
					<dim>1</dim>
					<dim>40</dim>
					<dim>32</dim>
					<dim>32</dim>
				</port>
				<port id="1" precision="FP32">
					<dim>1</dim>
					<dim>40</dim>
					<dim>1</dim>
					<dim>1</dim>
				</port>
			</input>
			<output>
				<port id="2" precision="FP32" names="687">
					<dim>1</dim>
					<dim>40</dim>
					<dim>32</dim>
					<dim>32</dim>
				</port>
			</output>
		</layer>
		<layer id="277" name="467" type="Add" version="opset1">
			<data auto_broadcast="numpy" />
			<rt_info>
				<attribute name="fused_names" version="0" value="467" />
			</rt_info>
			<input>
				<port id="0" precision="FP32">
					<dim>1</dim>
					<dim>40</dim>
					<dim>32</dim>
					<dim>32</dim>
				</port>
				<port id="1" precision="FP32">
					<dim>1</dim>
					<dim>40</dim>
					<dim>32</dim>
					<dim>32</dim>
				</port>
			</input>
			<output>
				<port id="2" precision="FP32" names="467">
					<dim>1</dim>
					<dim>40</dim>
					<dim>32</dim>
					<dim>32</dim>
				</port>
			</output>
		</layer>
		<layer id="278" name="691_compressed" type="Const" version="opset1">
			<data element_type="f16" shape="160, 40, 1, 1" offset="385404" size="12800" />
			<output>
				<port id="0" precision="FP16">
					<dim>160</dim>
					<dim>40</dim>
					<dim>1</dim>
					<dim>1</dim>
				</port>
			</output>
		</layer>
		<layer id="279" name="691" type="Convert" version="opset1">
			<data destination_type="f32" />
			<rt_info>
				<attribute name="decompression" version="0" />
				<attribute name="fused_names" version="0" value="691" />
			</rt_info>
			<input>
				<port id="0" precision="FP16">
					<dim>160</dim>
					<dim>40</dim>
					<dim>1</dim>
					<dim>1</dim>
				</port>
			</input>
			<output>
				<port id="1" precision="FP32" names="691">
					<dim>160</dim>
					<dim>40</dim>
					<dim>1</dim>
					<dim>1</dim>
				</port>
			</output>
		</layer>
		<layer id="280" name="Convolution_2634" type="Convolution" version="opset1">
			<data strides="1, 1" dilations="1, 1" pads_begin="0, 0" pads_end="0, 0" auto_pad="explicit" />
			<rt_info>
				<attribute name="fused_names" version="0" value="Convolution_2634" />
			</rt_info>
			<input>
				<port id="0" precision="FP32">
					<dim>1</dim>
					<dim>40</dim>
					<dim>32</dim>
					<dim>32</dim>
				</port>
				<port id="1" precision="FP32">
					<dim>160</dim>
					<dim>40</dim>
					<dim>1</dim>
					<dim>1</dim>
				</port>
			</input>
			<output>
				<port id="2" precision="FP32">
					<dim>1</dim>
					<dim>160</dim>
					<dim>32</dim>
					<dim>32</dim>
				</port>
			</output>
		</layer>
		<layer id="281" name="Reshape_2654_compressed" type="Const" version="opset1">
			<data element_type="f16" shape="1, 160, 1, 1" offset="398204" size="320" />
			<output>
				<port id="0" precision="FP16">
					<dim>1</dim>
					<dim>160</dim>
					<dim>1</dim>
					<dim>1</dim>
				</port>
			</output>
		</layer>
		<layer id="282" name="Reshape_2654" type="Convert" version="opset1">
			<data destination_type="f32" />
			<rt_info>
				<attribute name="decompression" version="0" />
			</rt_info>
			<input>
				<port id="0" precision="FP16">
					<dim>1</dim>
					<dim>160</dim>
					<dim>1</dim>
					<dim>1</dim>
				</port>
			</input>
			<output>
				<port id="1" precision="FP32">
					<dim>1</dim>
					<dim>160</dim>
					<dim>1</dim>
					<dim>1</dim>
				</port>
			</output>
		</layer>
		<layer id="283" name="690" type="Add" version="opset1">
			<data auto_broadcast="numpy" />
			<rt_info>
				<attribute name="fused_names" version="0" value="690, Concat_2653, Reshape_2654" />
			</rt_info>
			<input>
				<port id="0" precision="FP32">
					<dim>1</dim>
					<dim>160</dim>
					<dim>32</dim>
					<dim>32</dim>
				</port>
				<port id="1" precision="FP32">
					<dim>1</dim>
					<dim>160</dim>
					<dim>1</dim>
					<dim>1</dim>
				</port>
			</input>
			<output>
				<port id="2" precision="FP32" names="690">
					<dim>1</dim>
					<dim>160</dim>
					<dim>32</dim>
					<dim>32</dim>
				</port>
			</output>
		</layer>
		<layer id="284" name="471" type="Swish" version="opset4">
			<rt_info>
				<attribute name="fused_names" version="0" value="470, 471" />
			</rt_info>
			<input>
				<port id="0" precision="FP32">
					<dim>1</dim>
					<dim>160</dim>
					<dim>32</dim>
					<dim>32</dim>
				</port>
			</input>
			<output>
				<port id="1" precision="FP32" names="471">
					<dim>1</dim>
					<dim>160</dim>
					<dim>32</dim>
					<dim>32</dim>
				</port>
			</output>
		</layer>
		<layer id="285" name="Reshape_2691_compressed" type="Const" version="opset1">
			<data element_type="f16" shape="160, 1, 1, 7, 7" offset="398524" size="15680" />
			<output>
				<port id="0" precision="FP16">
					<dim>160</dim>
					<dim>1</dim>
					<dim>1</dim>
					<dim>7</dim>
					<dim>7</dim>
				</port>
			</output>
		</layer>
		<layer id="286" name="Reshape_2691" type="Convert" version="opset1">
			<data destination_type="f32" />
			<rt_info>
				<attribute name="decompression" version="0" />
			</rt_info>
			<input>
				<port id="0" precision="FP16">
					<dim>160</dim>
					<dim>1</dim>
					<dim>1</dim>
					<dim>7</dim>
					<dim>7</dim>
				</port>
			</input>
			<output>
				<port id="1" precision="FP32">
					<dim>160</dim>
					<dim>1</dim>
					<dim>1</dim>
					<dim>7</dim>
					<dim>7</dim>
				</port>
			</output>
		</layer>
		<layer id="287" name="GroupConvolution_2757" type="GroupConvolution" version="opset1">
			<data strides="2, 2" pads_begin="3, 3" pads_end="3, 3" dilations="1, 1" auto_pad="explicit" />
			<rt_info>
				<attribute name="fused_names" version="0" value="GroupConvolution_2757, Reshape_2691" />
			</rt_info>
			<input>
				<port id="0" precision="FP32">
					<dim>1</dim>
					<dim>160</dim>
					<dim>32</dim>
					<dim>32</dim>
				</port>
				<port id="1" precision="FP32">
					<dim>160</dim>
					<dim>1</dim>
					<dim>1</dim>
					<dim>7</dim>
					<dim>7</dim>
				</port>
			</input>
			<output>
				<port id="2" precision="FP32">
					<dim>1</dim>
					<dim>160</dim>
					<dim>16</dim>
					<dim>16</dim>
				</port>
			</output>
		</layer>
		<layer id="288" name="Reshape_2777_compressed" type="Const" version="opset1">
			<data element_type="f16" shape="1, 160, 1, 1" offset="414204" size="320" />
			<output>
				<port id="0" precision="FP16">
					<dim>1</dim>
					<dim>160</dim>
					<dim>1</dim>
					<dim>1</dim>
				</port>
			</output>
		</layer>
		<layer id="289" name="Reshape_2777" type="Convert" version="opset1">
			<data destination_type="f32" />
			<rt_info>
				<attribute name="decompression" version="0" />
			</rt_info>
			<input>
				<port id="0" precision="FP16">
					<dim>1</dim>
					<dim>160</dim>
					<dim>1</dim>
					<dim>1</dim>
				</port>
			</input>
			<output>
				<port id="1" precision="FP32">
					<dim>1</dim>
					<dim>160</dim>
					<dim>1</dim>
					<dim>1</dim>
				</port>
			</output>
		</layer>
		<layer id="290" name="693" type="Add" version="opset1">
			<data auto_broadcast="numpy" />
			<rt_info>
				<attribute name="fused_names" version="0" value="693, Concat_2776, Reshape_2777" />
			</rt_info>
			<input>
				<port id="0" precision="FP32">
					<dim>1</dim>
					<dim>160</dim>
					<dim>16</dim>
					<dim>16</dim>
				</port>
				<port id="1" precision="FP32">
					<dim>1</dim>
					<dim>160</dim>
					<dim>1</dim>
					<dim>1</dim>
				</port>
			</input>
			<output>
				<port id="2" precision="FP32" names="693">
					<dim>1</dim>
					<dim>160</dim>
					<dim>16</dim>
					<dim>16</dim>
				</port>
			</output>
		</layer>
		<layer id="291" name="475" type="Swish" version="opset4">
			<rt_info>
				<attribute name="fused_names" version="0" value="474, 475" />
			</rt_info>
			<input>
				<port id="0" precision="FP32">
					<dim>1</dim>
					<dim>160</dim>
					<dim>16</dim>
					<dim>16</dim>
				</port>
			</input>
			<output>
				<port id="1" precision="FP32" names="475">
					<dim>1</dim>
					<dim>160</dim>
					<dim>16</dim>
					<dim>16</dim>
				</port>
			</output>
		</layer>
		<layer id="292" name="Range_2814" type="Const" version="opset1">
			<data element_type="i64" shape="2" offset="1292" size="16" />
			<output>
				<port id="0" precision="I64">
					<dim>2</dim>
				</port>
			</output>
		</layer>
		<layer id="293" name="476" type="ReduceMean" version="opset1">
			<data keep_dims="true" />
			<rt_info>
				<attribute name="fused_names" version="0" value="476, Range_2814" />
			</rt_info>
			<input>
				<port id="0" precision="FP32">
					<dim>1</dim>
					<dim>160</dim>
					<dim>16</dim>
					<dim>16</dim>
				</port>
				<port id="1" precision="I64">
					<dim>2</dim>
				</port>
			</input>
			<output>
				<port id="2" precision="FP32" names="476">
					<dim>1</dim>
					<dim>160</dim>
					<dim>1</dim>
					<dim>1</dim>
				</port>
			</output>
		</layer>
		<layer id="294" name="blocks.3.0.se.conv_reduce.weight_compressed" type="Const" version="opset1">
			<data element_type="f16" shape="40, 160, 1, 1" offset="414524" size="12800" />
			<output>
				<port id="0" precision="FP16">
					<dim>40</dim>
					<dim>160</dim>
					<dim>1</dim>
					<dim>1</dim>
				</port>
			</output>
		</layer>
		<layer id="295" name="blocks.3.0.se.conv_reduce.weight" type="Convert" version="opset1">
			<data destination_type="f32" />
			<rt_info>
				<attribute name="decompression" version="0" />
				<attribute name="fused_names" version="0" value="blocks.3.0.se.conv_reduce.weight" />
			</rt_info>
			<input>
				<port id="0" precision="FP16">
					<dim>40</dim>
					<dim>160</dim>
					<dim>1</dim>
					<dim>1</dim>
				</port>
			</input>
			<output>
				<port id="1" precision="FP32" names="blocks.3.0.se.conv_reduce.weight">
					<dim>40</dim>
					<dim>160</dim>
					<dim>1</dim>
					<dim>1</dim>
				</port>
			</output>
		</layer>
		<layer id="296" name="Convolution_2839" type="Convolution" version="opset1">
			<data strides="1, 1" dilations="1, 1" pads_begin="0, 0" pads_end="0, 0" auto_pad="explicit" />
			<rt_info>
				<attribute name="fused_names" version="0" value="Convolution_2839" />
			</rt_info>
			<input>
				<port id="0" precision="FP32">
					<dim>1</dim>
					<dim>160</dim>
					<dim>1</dim>
					<dim>1</dim>
				</port>
				<port id="1" precision="FP32">
					<dim>40</dim>
					<dim>160</dim>
					<dim>1</dim>
					<dim>1</dim>
				</port>
			</input>
			<output>
				<port id="2" precision="FP32">
					<dim>1</dim>
					<dim>40</dim>
					<dim>1</dim>
					<dim>1</dim>
				</port>
			</output>
		</layer>
		<layer id="297" name="Reshape_2859_compressed" type="Const" version="opset1">
			<data element_type="f16" shape="1, 40, 1, 1" offset="427324" size="80" />
			<output>
				<port id="0" precision="FP16">
					<dim>1</dim>
					<dim>40</dim>
					<dim>1</dim>
					<dim>1</dim>
				</port>
			</output>
		</layer>
		<layer id="298" name="Reshape_2859" type="Convert" version="opset1">
			<data destination_type="f32" />
			<rt_info>
				<attribute name="decompression" version="0" />
			</rt_info>
			<input>
				<port id="0" precision="FP16">
					<dim>1</dim>
					<dim>40</dim>
					<dim>1</dim>
					<dim>1</dim>
				</port>
			</input>
			<output>
				<port id="1" precision="FP32">
					<dim>1</dim>
					<dim>40</dim>
					<dim>1</dim>
					<dim>1</dim>
				</port>
			</output>
		</layer>
		<layer id="299" name="477" type="Add" version="opset1">
			<data auto_broadcast="numpy" />
			<rt_info>
				<attribute name="fused_names" version="0" value="477, Concat_2858, Reshape_2859" />
			</rt_info>
			<input>
				<port id="0" precision="FP32">
					<dim>1</dim>
					<dim>40</dim>
					<dim>1</dim>
					<dim>1</dim>
				</port>
				<port id="1" precision="FP32">
					<dim>1</dim>
					<dim>40</dim>
					<dim>1</dim>
					<dim>1</dim>
				</port>
			</input>
			<output>
				<port id="2" precision="FP32" names="477">
					<dim>1</dim>
					<dim>40</dim>
					<dim>1</dim>
					<dim>1</dim>
				</port>
			</output>
		</layer>
		<layer id="300" name="478" type="ReLU" version="opset1">
			<rt_info>
				<attribute name="fused_names" version="0" value="478" />
			</rt_info>
			<input>
				<port id="0" precision="FP32">
					<dim>1</dim>
					<dim>40</dim>
					<dim>1</dim>
					<dim>1</dim>
				</port>
			</input>
			<output>
				<port id="1" precision="FP32" names="478">
					<dim>1</dim>
					<dim>40</dim>
					<dim>1</dim>
					<dim>1</dim>
				</port>
			</output>
		</layer>
		<layer id="301" name="blocks.3.0.se.conv_expand.weight_compressed" type="Const" version="opset1">
			<data element_type="f16" shape="160, 40, 1, 1" offset="427404" size="12800" />
			<output>
				<port id="0" precision="FP16">
					<dim>160</dim>
					<dim>40</dim>
					<dim>1</dim>
					<dim>1</dim>
				</port>
			</output>
		</layer>
…
				<port id="0" precision="FP16">
					<dim>144</dim>
					<dim>576</dim>
					<dim>1</dim>
					<dim>1</dim>
				</port>
			</input>
			<output>
				<port id="1" precision="FP32" names="blocks.4.2.se.conv_reduce.weight">
					<dim>144</dim>
					<dim>576</dim>
					<dim>1</dim>
					<dim>1</dim>
				</port>
			</output>
		</layer>
		<layer id="522" name="Convolution_4973" type="Convolution" version="opset1">
			<data strides="1, 1" dilations="1, 1" pads_begin="0, 0" pads_end="0, 0" auto_pad="explicit" />
			<rt_info>
				<attribute name="fused_names" version="0" value="Convolution_4973" />
			</rt_info>
			<input>
				<port id="0" precision="FP32">
					<dim>1</dim>
					<dim>576</dim>
					<dim>1</dim>
					<dim>1</dim>
				</port>
				<port id="1" precision="FP32">
					<dim>144</dim>
					<dim>576</dim>
					<dim>1</dim>
					<dim>1</dim>
				</port>
			</input>
			<output>
				<port id="2" precision="FP32">
					<dim>1</dim>
					<dim>144</dim>
					<dim>1</dim>
					<dim>1</dim>
				</port>
			</output>
		</layer>
		<layer id="523" name="Reshape_4993_compressed" type="Const" version="opset1">
			<data element_type="f16" shape="1, 144, 1, 1" offset="2211548" size="288" />
			<output>
				<port id="0" precision="FP16">
					<dim>1</dim>
					<dim>144</dim>
					<dim>1</dim>
					<dim>1</dim>
				</port>
			</output>
		</layer>
		<layer id="524" name="Reshape_4993" type="Convert" version="opset1">
			<data destination_type="f32" />
			<rt_info>
				<attribute name="decompression" version="0" />
			</rt_info>
			<input>
				<port id="0" precision="FP16">
					<dim>1</dim>
					<dim>144</dim>
					<dim>1</dim>
					<dim>1</dim>
				</port>
			</input>
			<output>
				<port id="1" precision="FP32">
					<dim>1</dim>
					<dim>144</dim>
					<dim>1</dim>
					<dim>1</dim>
				</port>
			</output>
		</layer>
		<layer id="525" name="613" type="Add" version="opset1">
			<data auto_broadcast="numpy" />
			<rt_info>
				<attribute name="fused_names" version="0" value="613, Concat_4992, Reshape_4993" />
			</rt_info>
			<input>
				<port id="0" precision="FP32">
					<dim>1</dim>
					<dim>144</dim>
					<dim>1</dim>
					<dim>1</dim>
				</port>
				<port id="1" precision="FP32">
					<dim>1</dim>
					<dim>144</dim>
					<dim>1</dim>
					<dim>1</dim>
				</port>
			</input>
			<output>
				<port id="2" precision="FP32" names="613">
					<dim>1</dim>
					<dim>144</dim>
					<dim>1</dim>
					<dim>1</dim>
				</port>
			</output>
		</layer>
		<layer id="526" name="614" type="ReLU" version="opset1">
			<rt_info>
				<attribute name="fused_names" version="0" value="614" />
			</rt_info>
			<input>
				<port id="0" precision="FP32">
					<dim>1</dim>
					<dim>144</dim>
					<dim>1</dim>
					<dim>1</dim>
				</port>
			</input>
			<output>
				<port id="1" precision="FP32" names="614">
					<dim>1</dim>
					<dim>144</dim>
					<dim>1</dim>
					<dim>1</dim>
				</port>
			</output>
		</layer>
		<layer id="527" name="blocks.4.2.se.conv_expand.weight_compressed" type="Const" version="opset1">
			<data element_type="f16" shape="576, 144, 1, 1" offset="2211836" size="165888" />
			<output>
				<port id="0" precision="FP16">
					<dim>576</dim>
					<dim>144</dim>
					<dim>1</dim>
					<dim>1</dim>
				</port>
			</output>
		</layer>
		<layer id="528" name="blocks.4.2.se.conv_expand.weight" type="Convert" version="opset1">
			<data destination_type="f32" />
			<rt_info>
				<attribute name="decompression" version="0" />
				<attribute name="fused_names" version="0" value="blocks.4.2.se.conv_expand.weight" />
			</rt_info>
			<input>
				<port id="0" precision="FP16">
					<dim>576</dim>
					<dim>144</dim>
					<dim>1</dim>
					<dim>1</dim>
				</port>
			</input>
			<output>
				<port id="1" precision="FP32" names="blocks.4.2.se.conv_expand.weight">
					<dim>576</dim>
					<dim>144</dim>
					<dim>1</dim>
					<dim>1</dim>
				</port>
			</output>
		</layer>
		<layer id="529" name="Convolution_5022" type="Convolution" version="opset1">
			<data strides="1, 1" dilations="1, 1" pads_begin="0, 0" pads_end="0, 0" auto_pad="explicit" />
			<rt_info>
				<attribute name="fused_names" version="0" value="Convolution_5022" />
			</rt_info>
			<input>
				<port id="0" precision="FP32">
					<dim>1</dim>
					<dim>144</dim>
					<dim>1</dim>
					<dim>1</dim>
				</port>
				<port id="1" precision="FP32">
					<dim>576</dim>
					<dim>144</dim>
					<dim>1</dim>
					<dim>1</dim>
				</port>
			</input>
			<output>
				<port id="2" precision="FP32">
					<dim>1</dim>
					<dim>576</dim>
					<dim>1</dim>
					<dim>1</dim>
				</port>
			</output>
		</layer>
		<layer id="530" name="Reshape_5042_compressed" type="Const" version="opset1">
			<data element_type="f16" shape="1, 576, 1, 1" offset="2377724" size="1152" />
			<output>
				<port id="0" precision="FP16">
					<dim>1</dim>
					<dim>576</dim>
					<dim>1</dim>
					<dim>1</dim>
				</port>
			</output>
		</layer>
		<layer id="531" name="Reshape_5042" type="Convert" version="opset1">
			<data destination_type="f32" />
			<rt_info>
				<attribute name="decompression" version="0" />
			</rt_info>
			<input>
				<port id="0" precision="FP16">
					<dim>1</dim>
					<dim>576</dim>
					<dim>1</dim>
					<dim>1</dim>
				</port>
			</input>
			<output>
				<port id="1" precision="FP32">
					<dim>1</dim>
					<dim>576</dim>
					<dim>1</dim>
					<dim>1</dim>
				</port>
			</output>
		</layer>
		<layer id="532" name="615" type="Add" version="opset1">
			<data auto_broadcast="numpy" />
			<rt_info>
				<attribute name="fused_names" version="0" value="615, Concat_5041, Reshape_5042" />
			</rt_info>
			<input>
				<port id="0" precision="FP32">
					<dim>1</dim>
					<dim>576</dim>
					<dim>1</dim>
					<dim>1</dim>
				</port>
				<port id="1" precision="FP32">
					<dim>1</dim>
					<dim>576</dim>
					<dim>1</dim>
					<dim>1</dim>
				</port>
			</input>
			<output>
				<port id="2" precision="FP32" names="615">
					<dim>1</dim>
					<dim>576</dim>
					<dim>1</dim>
					<dim>1</dim>
				</port>
			</output>
		</layer>
		<layer id="533" name="622" type="HSigmoid" version="opset5">
			<rt_info>
				<attribute name="fused_names" version="0" value="617, 620, 622, Maximum_5071" />
			</rt_info>
			<input>
				<port id="0" precision="FP32">
					<dim>1</dim>
					<dim>576</dim>
					<dim>1</dim>
					<dim>1</dim>
				</port>
			</input>
			<output>
				<port id="1" precision="FP32" names="622">
					<dim>1</dim>
					<dim>576</dim>
					<dim>1</dim>
					<dim>1</dim>
				</port>
			</output>
		</layer>
		<layer id="534" name="623" type="Multiply" version="opset1">
			<data auto_broadcast="numpy" />
			<rt_info>
				<attribute name="fused_names" version="0" value="623" />
			</rt_info>
			<input>
				<port id="0" precision="FP32">
					<dim>1</dim>
					<dim>576</dim>
					<dim>16</dim>
					<dim>16</dim>
				</port>
				<port id="1" precision="FP32">
					<dim>1</dim>
					<dim>576</dim>
					<dim>1</dim>
					<dim>1</dim>
				</port>
			</input>
			<output>
				<port id="2" precision="FP32" names="623">
					<dim>1</dim>
					<dim>576</dim>
					<dim>16</dim>
					<dim>16</dim>
				</port>
			</output>
		</layer>
		<layer id="535" name="751_compressed" type="Const" version="opset1">
			<data element_type="f16" shape="96, 576, 1, 1" offset="2378876" size="110592" />
			<output>
				<port id="0" precision="FP16">
					<dim>96</dim>
					<dim>576</dim>
					<dim>1</dim>
					<dim>1</dim>
				</port>
			</output>
		</layer>
		<layer id="536" name="751" type="Convert" version="opset1">
			<data destination_type="f32" />
			<rt_info>
				<attribute name="decompression" version="0" />
				<attribute name="fused_names" version="0" value="751" />
			</rt_info>
			<input>
				<port id="0" precision="FP16">
					<dim>96</dim>
					<dim>576</dim>
					<dim>1</dim>
					<dim>1</dim>
				</port>
			</input>
			<output>
				<port id="1" precision="FP32" names="751">
					<dim>96</dim>
					<dim>576</dim>
					<dim>1</dim>
					<dim>1</dim>
				</port>
			</output>
		</layer>
		<layer id="537" name="Convolution_5075" type="Convolution" version="opset1">
			<data strides="1, 1" dilations="1, 1" pads_begin="0, 0" pads_end="0, 0" auto_pad="explicit" />
			<rt_info>
				<attribute name="fused_names" version="0" value="Convolution_5075" />
			</rt_info>
			<input>
				<port id="0" precision="FP32">
					<dim>1</dim>
					<dim>576</dim>
					<dim>16</dim>
					<dim>16</dim>
				</port>
				<port id="1" precision="FP32">
					<dim>96</dim>
					<dim>576</dim>
					<dim>1</dim>
					<dim>1</dim>
				</port>
			</input>
			<output>
				<port id="2" precision="FP32">
					<dim>1</dim>
					<dim>96</dim>
					<dim>16</dim>
					<dim>16</dim>
				</port>
			</output>
		</layer>
		<layer id="538" name="Reshape_5095_compressed" type="Const" version="opset1">
			<data element_type="f16" shape="1, 96, 1, 1" offset="2489468" size="192" />
			<output>
				<port id="0" precision="FP16">
					<dim>1</dim>
					<dim>96</dim>
					<dim>1</dim>
					<dim>1</dim>
				</port>
			</output>
		</layer>
		<layer id="539" name="Reshape_5095" type="Convert" version="opset1">
			<data destination_type="f32" />
			<rt_info>
				<attribute name="decompression" version="0" />
			</rt_info>
			<input>
				<port id="0" precision="FP16">
					<dim>1</dim>
					<dim>96</dim>
					<dim>1</dim>
					<dim>1</dim>
				</port>
			</input>
			<output>
				<port id="1" precision="FP32">
					<dim>1</dim>
					<dim>96</dim>
					<dim>1</dim>
					<dim>1</dim>
				</port>
			</output>
		</layer>
		<layer id="540" name="750" type="Add" version="opset1">
			<data auto_broadcast="numpy" />
			<rt_info>
				<attribute name="fused_names" version="0" value="750, Concat_5094, Reshape_5095" />
			</rt_info>
			<input>
				<port id="0" precision="FP32">
					<dim>1</dim>
					<dim>96</dim>
					<dim>16</dim>
					<dim>16</dim>
				</port>
				<port id="1" precision="FP32">
					<dim>1</dim>
					<dim>96</dim>
					<dim>1</dim>
					<dim>1</dim>
				</port>
			</input>
			<output>
				<port id="2" precision="FP32" names="750">
					<dim>1</dim>
					<dim>96</dim>
					<dim>16</dim>
					<dim>16</dim>
				</port>
			</output>
		</layer>
		<layer id="541" name="xf" type="Add" version="opset1">
			<data auto_broadcast="numpy" />
			<rt_info>
				<attribute name="fused_names" version="0" value="xf" />
			</rt_info>
			<input>
				<port id="0" precision="FP32">
					<dim>1</dim>
					<dim>96</dim>
					<dim>16</dim>
					<dim>16</dim>
				</port>
				<port id="1" precision="FP32">
					<dim>1</dim>
					<dim>96</dim>
					<dim>16</dim>
					<dim>16</dim>
				</port>
			</input>
			<output>
				<port id="2" precision="FP32" names="xf">
					<dim>1</dim>
					<dim>96</dim>
					<dim>16</dim>
					<dim>16</dim>
				</port>
			</output>
		</layer>
		<layer id="542" name="xf/sink_port_0" type="Result" version="opset1">
			<rt_info>
				<attribute name="fused_names" version="0" value="xf/sink_port_0" />
			</rt_info>
			<input>
				<port id="0" precision="FP32">
					<dim>1</dim>
					<dim>96</dim>
					<dim>16</dim>
					<dim>16</dim>
				</port>
			</input>
		</layer>
	</layers>
	<edges>
		<edge from-layer="0" from-port="0" to-layer="1" to-port="0" />
		<edge from-layer="1" from-port="1" to-layer="7" to-port="0" />
		<edge from-layer="2" from-port="0" to-layer="5" to-port="0" />
		<edge from-layer="3" from-port="0" to-layer="5" to-port="1" />
		<edge from-layer="4" from-port="0" to-layer="5" to-port="2" />
		<edge from-layer="5" from-port="3" to-layer="7" to-port="1" />
		<edge from-layer="6" from-port="0" to-layer="7" to-port="2" />
		<edge from-layer="7" from-port="3" to-layer="9" to-port="0" />
		<edge from-layer="8" from-port="0" to-layer="9" to-port="1" />
		<edge from-layer="9" from-port="2" to-layer="11" to-port="0" />
		<edge from-layer="10" from-port="0" to-layer="11" to-port="1" />
		<edge from-layer="11" from-port="2" to-layer="13" to-port="0" />
		<edge from-layer="12" from-port="0" to-layer="13" to-port="1" />
		<edge from-layer="13" from-port="2" to-layer="16" to-port="0" />
		<edge from-layer="14" from-port="0" to-layer="15" to-port="0" />
		<edge from-layer="15" from-port="1" to-layer="16" to-port="1" />
		<edge from-layer="16" from-port="2" to-layer="19" to-port="0" />
		<edge from-layer="17" from-port="0" to-layer="18" to-port="0" />
		<edge from-layer="18" from-port="1" to-layer="19" to-port="1" />
		<edge from-layer="19" from-port="2" to-layer="20" to-port="0" />
		<edge from-layer="20" from-port="1" to-layer="23" to-port="0" />
		<edge from-layer="20" from-port="1" to-layer="51" to-port="1" />
		<edge from-layer="21" from-port="0" to-layer="22" to-port="0" />
		<edge from-layer="22" from-port="1" to-layer="23" to-port="1" />
		<edge from-layer="23" from-port="2" to-layer="26" to-port="0" />
		<edge from-layer="24" from-port="0" to-layer="25" to-port="0" />
		<edge from-layer="25" from-port="1" to-layer="26" to-port="1" />
		<edge from-layer="26" from-port="2" to-layer="27" to-port="0" />
		<edge from-layer="27" from-port="1" to-layer="29" to-port="0" />
		<edge from-layer="27" from-port="1" to-layer="44" to-port="0" />
		<edge from-layer="28" from-port="0" to-layer="29" to-port="1" />
		<edge from-layer="29" from-port="2" to-layer="32" to-port="0" />
		<edge from-layer="30" from-port="0" to-layer="31" to-port="0" />
		<edge from-layer="31" from-port="1" to-layer="32" to-port="1" />
		<edge from-layer="32" from-port="2" to-layer="35" to-port="0" />
		<edge from-layer="33" from-port="0" to-layer="34" to-port="0" />
		<edge from-layer="34" from-port="1" to-layer="35" to-port="1" />
		<edge from-layer="35" from-port="2" to-layer="36" to-port="0" />
		<edge from-layer="36" from-port="1" to-layer="39" to-port="0" />
		<edge from-layer="37" from-port="0" to-layer="38" to-port="0" />
		<edge from-layer="38" from-port="1" to-layer="39" to-port="1" />
		<edge from-layer="39" from-port="2" to-layer="42" to-port="0" />
		<edge from-layer="40" from-port="0" to-layer="41" to-port="0" />
		<edge from-layer="41" from-port="1" to-layer="42" to-port="1" />
		<edge from-layer="42" from-port="2" to-layer="43" to-port="0" />
		<edge from-layer="43" from-port="1" to-layer="44" to-port="1" />
		<edge from-layer="44" from-port="2" to-layer="47" to-port="0" />
		<edge from-layer="45" from-port="0" to-layer="46" to-port="0" />
		<edge from-layer="46" from-port="1" to-layer="47" to-port="1" />
		<edge from-layer="47" from-port="2" to-layer="50" to-port="0" />
		<edge from-layer="48" from-port="0" to-layer="49" to-port="0" />
		<edge from-layer="49" from-port="1" to-layer="50" to-port="1" />
		<edge from-layer="50" from-port="2" to-layer="51" to-port="0" />
		<edge from-layer="51" from-port="2" to-layer="54" to-port="0" />
		<edge from-layer="52" from-port="0" to-layer="53" to-port="0" />
		<edge from-layer="53" from-port="1" to-layer="54" to-port="1" />
		<edge from-layer="54" from-port="2" to-layer="57" to-port="0" />
		<edge from-layer="55" from-port="0" to-layer="56" to-port="0" />
		<edge from-layer="56" from-port="1" to-layer="57" to-port="1" />
		<edge from-layer="57" from-port="2" to-layer="58" to-port="0" />
		<edge from-layer="58" from-port="1" to-layer="61" to-port="0" />
		<edge from-layer="59" from-port="0" to-layer="60" to-port="0" />
		<edge from-layer="60" from-port="1" to-layer="61" to-port="1" />
		<edge from-layer="61" from-port="2" to-layer="64" to-port="0" />
		<edge from-layer="62" from-port="0" to-layer="63" to-port="0" />
		<edge from-layer="63" from-port="1" to-layer="64" to-port="1" />
		<edge from-layer="64" from-port="2" to-layer="65" to-port="0" />
		<edge from-layer="65" from-port="1" to-layer="67" to-port="0" />
		<edge from-layer="65" from-port="1" to-layer="82" to-port="0" />
		<edge from-layer="66" from-port="0" to-layer="67" to-port="1" />
		<edge from-layer="67" from-port="2" to-layer="70" to-port="0" />
		<edge from-layer="68" from-port="0" to-layer="69" to-port="0" />
		<edge from-layer="69" from-port="1" to-layer="70" to-port="1" />
		<edge from-layer="70" from-port="2" to-layer="73" to-port="0" />
		<edge from-layer="71" from-port="0" to-layer="72" to-port="0" />
		<edge from-layer="72" from-port="1" to-layer="73" to-port="1" />
		<edge from-layer="73" from-port="2" to-layer="74" to-port="0" />
		<edge from-layer="74" from-port="1" to-layer="77" to-port="0" />
		<edge from-layer="75" from-port="0" to-layer="76" to-port="0" />
		<edge from-layer="76" from-port="1" to-layer="77" to-port="1" />
		<edge from-layer="77" from-port="2" to-layer="80" to-port="0" />
		<edge from-layer="78" from-port="0" to-layer="79" to-port="0" />
		<edge from-layer="79" from-port="1" to-layer="80" to-port="1" />
		<edge from-layer="80" from-port="2" to-layer="81" to-port="0" />
		<edge from-layer="81" from-port="1" to-layer="82" to-port="1" />
		<edge from-layer="82" from-port="2" to-layer="85" to-port="0" />
		<edge from-layer="83" from-port="0" to-layer="84" to-port="0" />
		<edge from-layer="84" from-port="1" to-layer="85" to-port="1" />
		<edge from-layer="85" from-port="2" to-layer="88" to-port="0" />
		<edge from-layer="86" from-port="0" to-layer="87" to-port="0" />
		<edge from-layer="87" from-port="1" to-layer="88" to-port="1" />
		<edge from-layer="88" from-port="2" to-layer="91" to-port="0" />
		<edge from-layer="88" from-port="2" to-layer="126" to-port="1" />
		<edge from-layer="89" from-port="0" to-layer="90" to-port="0" />
		<edge from-layer="90" from-port="1" to-layer="91" to-port="1" />
		<edge from-layer="91" from-port="2" to-layer="94" to-port="0" />
		<edge from-layer="92" from-port="0" to-layer="93" to-port="0" />
		<edge from-layer="93" from-port="1" to-layer="94" to-port="1" />
		<edge from-layer="94" from-port="2" to-layer="95" to-port="0" />
		<edge from-layer="95" from-port="1" to-layer="98" to-port="0" />
		<edge from-layer="96" from-port="0" to-layer="97" to-port="0" />
		<edge from-layer="97" from-port="1" to-layer="98" to-port="1" />
		<edge from-layer="98" from-port="2" to-layer="101" to-port="0" />
		<edge from-layer="99" from-port="0" to-layer="100" to-port="0" />
		<edge from-layer="100" from-port="1" to-layer="101" to-port="1" />
		<edge from-layer="101" from-port="2" to-layer="102" to-port="0" />
		<edge from-layer="102" from-port="1" to-layer="104" to-port="0" />
		<edge from-layer="102" from-port="1" to-layer="119" to-port="0" />
		<edge from-layer="103" from-port="0" to-layer="104" to-port="1" />
		<edge from-layer="104" from-port="2" to-layer="107" to-port="0" />
		<edge from-layer="105" from-port="0" to-layer="106" to-port="0" />
		<edge from-layer="106" from-port="1" to-layer="107" to-port="1" />
		<edge from-layer="107" from-port="2" to-layer="110" to-port="0" />
		<edge from-layer="108" from-port="0" to-layer="109" to-port="0" />
		<edge from-layer="109" from-port="1" to-layer="110" to-port="1" />
		<edge from-layer="110" from-port="2" to-layer="111" to-port="0" />
		<edge from-layer="111" from-port="1" to-layer="114" to-port="0" />
		<edge from-layer="112" from-port="0" to-layer="113" to-port="0" />
		<edge from-layer="113" from-port="1" to-layer="114" to-port="1" />
		<edge from-layer="114" from-port="2" to-layer="117" to-port="0" />
		<edge from-layer="115" from-port="0" to-layer="116" to-port="0" />
		<edge from-layer="116" from-port="1" to-layer="117" to-port="1" />
		<edge from-layer="117" from-port="2" to-layer="118" to-port="0" />
		<edge from-layer="118" from-port="1" to-layer="119" to-port="1" />
		<edge from-layer="119" from-port="2" to-layer="122" to-port="0" />
		<edge from-layer="120" from-port="0" to-layer="121" to-port="0" />
		<edge from-layer="121" from-port="1" to-layer="122" to-port="1" />
		<edge from-layer="122" from-port="2" to-layer="125" to-port="0" />
		<edge from-layer="123" from-port="0" to-layer="124" to-port="0" />
		<edge from-layer="124" from-port="1" to-layer="125" to-port="1" />
		<edge from-layer="125" from-port="2" to-layer="126" to-port="0" />
		<edge from-layer="126" from-port="2" to-layer="129" to-port="0" />
		<edge from-layer="127" from-port="0" to-layer="128" to-port="0" />
		<edge from-layer="128" from-port="1" to-layer="129" to-port="1" />
		<edge from-layer="129" from-port="2" to-layer="132" to-port="0" />
		<edge from-layer="130" from-port="0" to-layer="131" to-port="0" />
		<edge from-layer="131" from-port="1" to-layer="132" to-port="1" />
		<edge from-layer="132" from-port="2" to-layer="133" to-port="0" />
		<edge from-layer="133" from-port="1" to-layer="136" to-port="0" />
		<edge from-layer="134" from-port="0" to-layer="135" to-port="0" />
		<edge from-layer="135" from-port="1" to-layer="136" to-port="1" />
		<edge from-layer="136" from-port="2" to-layer="139" to-port="0" />
		<edge from-layer="137" from-port="0" to-layer="138" to-port="0" />
		<edge from-layer="138" from-port="1" to-layer="139" to-port="1" />
		<edge from-layer="139" from-port="2" to-layer="140" to-port="0" />
		<edge from-layer="140" from-port="1" to-layer="157" to-port="0" />
		<edge from-layer="140" from-port="1" to-layer="142" to-port="0" />
		<edge from-layer="141" from-port="0" to-layer="142" to-port="1" />
		<edge from-layer="142" from-port="2" to-layer="145" to-port="0" />
		<edge from-layer="143" from-port="0" to-layer="144" to-port="0" />
		<edge from-layer="144" from-port="1" to-layer="145" to-port="1" />
		<edge from-layer="145" from-port="2" to-layer="148" to-port="0" />
		<edge from-layer="146" from-port="0" to-layer="147" to-port="0" />
		<edge from-layer="147" from-port="1" to-layer="148" to-port="1" />
		<edge from-layer="148" from-port="2" to-layer="149" to-port="0" />
		<edge from-layer="149" from-port="1" to-layer="152" to-port="0" />
		<edge from-layer="150" from-port="0" to-layer="151" to-port="0" />
		<edge from-layer="151" from-port="1" to-layer="152" to-port="1" />
		<edge from-layer="152" from-port="2" to-layer="155" to-port="0" />
		<edge from-layer="153" from-port="0" to-layer="154" to-port="0" />
		<edge from-layer="154" from-port="1" to-layer="155" to-port="1" />
		<edge from-layer="155" from-port="2" to-layer="156" to-port="0" />
		<edge from-layer="156" from-port="1" to-layer="157" to-port="1" />
		<edge from-layer="157" from-port="2" to-layer="160" to-port="0" />
		<edge from-layer="158" from-port="0" to-layer="159" to-port="0" />
		<edge from-layer="159" from-port="1" to-layer="160" to-port="1" />
		<edge from-layer="160" from-port="2" to-layer="163" to-port="0" />
		<edge from-layer="161" from-port="0" to-layer="162" to-port="0" />
		<edge from-layer="162" from-port="1" to-layer="163" to-port="1" />
		<edge from-layer="163" from-port="2" to-layer="166" to-port="0" />
		<edge from-layer="163" from-port="2" to-layer="201" to-port="1" />
		<edge from-layer="164" from-port="0" to-layer="165" to-port="0" />
		<edge from-layer="165" from-port="1" to-layer="166" to-port="1" />
		<edge from-layer="166" from-port="2" to-layer="169" to-port="0" />
		<edge from-layer="167" from-port="0" to-layer="168" to-port="0" />
		<edge from-layer="168" from-port="1" to-layer="169" to-port="1" />
		<edge from-layer="169" from-port="2" to-layer="170" to-port="0" />
		<edge from-layer="170" from-port="1" to-layer="173" to-port="0" />
		<edge from-layer="171" from-port="0" to-layer="172" to-port="0" />
		<edge from-layer="172" from-port="1" to-layer="173" to-port="1" />
		<edge from-layer="173" from-port="2" to-layer="176" to-port="0" />
		<edge from-layer="174" from-port="0" to-layer="175" to-port="0" />
		<edge from-layer="175" from-port="1" to-layer="176" to-port="1" />
		<edge from-layer="176" from-port="2" to-layer="177" to-port="0" />
		<edge from-layer="177" from-port="1" to-layer="194" to-port="0" />
		<edge from-layer="177" from-port="1" to-layer="179" to-port="0" />
		<edge from-layer="178" from-port="0" to-layer="179" to-port="1" />
		<edge from-layer="179" from-port="2" to-layer="182" to-port="0" />
		<edge from-layer="180" from-port="0" to-layer="181" to-port="0" />
		<edge from-layer="181" from-port="1" to-layer="182" to-port="1" />
		<edge from-layer="182" from-port="2" to-layer="185" to-port="0" />
		<edge from-layer="183" from-port="0" to-layer="184" to-port="0" />
		<edge from-layer="184" from-port="1" to-layer="185" to-port="1" />
		<edge from-layer="185" from-port="2" to-layer="186" to-port="0" />
		<edge from-layer="186" from-port="1" to-layer="189" to-port="0" />
		<edge from-layer="187" from-port="0" to-layer="188" to-port="0" />
		<edge from-layer="188" from-port="1" to-layer="189" to-port="1" />
		<edge from-layer="189" from-port="2" to-layer="192" to-port="0" />
		<edge from-layer="190" from-port="0" to-layer="191" to-port="0" />
		<edge from-layer="191" from-port="1" to-layer="192" to-port="1" />
		<edge from-layer="192" from-port="2" to-layer="193" to-port="0" />
		<edge from-layer="193" from-port="1" to-layer="194" to-port="1" />
		<edge from-layer="194" from-port="2" to-layer="197" to-port="0" />
		<edge from-layer="195" from-port="0" to-layer="196" to-port="0" />
		<edge from-layer="196" from-port="1" to-layer="197" to-port="1" />
		<edge from-layer="197" from-port="2" to-layer="200" to-port="0" />
		<edge from-layer="198" from-port="0" to-layer="199" to-port="0" />
		<edge from-layer="199" from-port="1" to-layer="200" to-port="1" />
		<edge from-layer="200" from-port="2" to-layer="201" to-port="0" />
		<edge from-layer="201" from-port="2" to-layer="204" to-port="0" />
		<edge from-layer="201" from-port="2" to-layer="239" to-port="1" />
		<edge from-layer="202" from-port="0" to-layer="203" to-port="0" />
		<edge from-layer="203" from-port="1" to-layer="204" to-port="1" />
		<edge from-layer="204" from-port="2" to-layer="207" to-port="0" />
		<edge from-layer="205" from-port="0" to-layer="206" to-port="0" />
		<edge from-layer="206" from-port="1" to-layer="207" to-port="1" />
		<edge from-layer="207" from-port="2" to-layer="208" to-port="0" />
		<edge from-layer="208" from-port="1" to-layer="211" to-port="0" />
		<edge from-layer="209" from-port="0" to-layer="210" to-port="0" />
		<edge from-layer="210" from-port="1" to-layer="211" to-port="1" />
		<edge from-layer="211" from-port="2" to-layer="214" to-port="0" />
		<edge from-layer="212" from-port="0" to-layer="213" to-port="0" />
		<edge from-layer="213" from-port="1" to-layer="214" to-port="1" />
		<edge from-layer="214" from-port="2" to-layer="215" to-port="0" />
		<edge from-layer="215" from-port="1" to-layer="232" to-port="0" />
		<edge from-layer="215" from-port="1" to-layer="217" to-port="0" />
		<edge from-layer="216" from-port="0" to-layer="217" to-port="1" />
		<edge from-layer="217" from-port="2" to-layer="220" to-port="0" />
		<edge from-layer="218" from-port="0" to-layer="219" to-port="0" />
		<edge from-layer="219" from-port="1" to-layer="220" to-port="1" />
		<edge from-layer="220" from-port="2" to-layer="223" to-port="0" />
		<edge from-layer="221" from-port="0" to-layer="222" to-port="0" />
		<edge from-layer="222" from-port="1" to-layer="223" to-port="1" />
		<edge from-layer="223" from-port="2" to-layer="224" to-port="0" />
		<edge from-layer="224" from-port="1" to-layer="227" to-port="0" />
		<edge from-layer="225" from-port="0" to-layer="226" to-port="0" />
		<edge from-layer="226" from-port="1" to-layer="227" to-port="1" />
		<edge from-layer="227" from-port="2" to-layer="230" to-port="0" />
		<edge from-layer="228" from-port="0" to-layer="229" to-port="0" />
		<edge from-layer="229" from-port="1" to-layer="230" to-port="1" />
		<edge from-layer="230" from-port="2" to-layer="231" to-port="0" />
		<edge from-layer="231" from-port="1" to-layer="232" to-port="1" />
		<edge from-layer="232" from-port="2" to-layer="235" to-port="0" />
		<edge from-layer="233" from-port="0" to-layer="234" to-port="0" />
		<edge from-layer="234" from-port="1" to-layer="235" to-port="1" />
		<edge from-layer="235" from-port="2" to-layer="238" to-port="0" />
		<edge from-layer="236" from-port="0" to-layer="237" to-port="0" />
		<edge from-layer="237" from-port="1" to-layer="238" to-port="1" />
		<edge from-layer="238" from-port="2" to-layer="239" to-port="0" />
		<edge from-layer="239" from-port="2" to-layer="277" to-port="1" />
		<edge from-layer="239" from-port="2" to-layer="242" to-port="0" />
		<edge from-layer="240" from-port="0" to-layer="241" to-port="0" />
		<edge from-layer="241" from-port="1" to-layer="242" to-port="1" />
		<edge from-layer="242" from-port="2" to-layer="245" to-port="0" />
		<edge from-layer="243" from-port="0" to-layer="244" to-port="0" />
		<edge from-layer="244" from-port="1" to-layer="245" to-port="1" />
		<edge from-layer="245" from-port="2" to-layer="246" to-port="0" />
		<edge from-layer="246" from-port="1" to-layer="249" to-port="0" />
		<edge from-layer="247" from-port="0" to-layer="248" to-port="0" />
		<edge from-layer="248" from-port="1" to-layer="249" to-port="1" />
		<edge from-layer="249" from-port="2" to-layer="252" to-port="0" />
		<edge from-layer="250" from-port="0" to-layer="251" to-port="0" />
		<edge from-layer="251" from-port="1" to-layer="252" to-port="1" />
		<edge from-layer="252" from-port="2" to-layer="253" to-port="0" />
		<edge from-layer="253" from-port="1" to-layer="255" to-port="0" />
		<edge from-layer="253" from-port="1" to-layer="270" to-port="0" />
		<edge from-layer="254" from-port="0" to-layer="255" to-port="1" />
		<edge from-layer="255" from-port="2" to-layer="258" to-port="0" />
		<edge from-layer="256" from-port="0" to-layer="257" to-port="0" />
		<edge from-layer="257" from-port="1" to-layer="258" to-port="1" />
		<edge from-layer="258" from-port="2" to-layer="261" to-port="0" />
		<edge from-layer="259" from-port="0" to-layer="260" to-port="0" />
		<edge from-layer="260" from-port="1" to-layer="261" to-port="1" />
		<edge from-layer="261" from-port="2" to-layer="262" to-port="0" />
		<edge from-layer="262" from-port="1" to-layer="265" to-port="0" />
		<edge from-layer="263" from-port="0" to-layer="264" to-port="0" />
		<edge from-layer="264" from-port="1" to-layer="265" to-port="1" />
		<edge from-layer="265" from-port="2" to-layer="268" to-port="0" />
		<edge from-layer="266" from-port="0" to-layer="267" to-port="0" />
		<edge from-layer="267" from-port="1" to-layer="268" to-port="1" />
		<edge from-layer="268" from-port="2" to-layer="269" to-port="0" />
		<edge from-layer="269" from-port="1" to-layer="270" to-port="1" />
		<edge from-layer="270" from-port="2" to-layer="273" to-port="0" />
		<edge from-layer="271" from-port="0" to-layer="272" to-port="0" />
		<edge from-layer="272" from-port="1" to-layer="273" to-port="1" />
		<edge from-layer="273" from-port="2" to-layer="276" to-port="0" />
		<edge from-layer="274" from-port="0" to-layer="275" to-port="0" />
		<edge from-layer="275" from-port="1" to-layer="276" to-port="1" />
		<edge from-layer="276" from-port="2" to-layer="277" to-port="0" />
		<edge from-layer="277" from-port="2" to-layer="280" to-port="0" />
		<edge from-layer="278" from-port="0" to-layer="279" to-port="0" />
		<edge from-layer="279" from-port="1" to-layer="280" to-port="1" />
		<edge from-layer="280" from-port="2" to-layer="283" to-port="0" />
		<edge from-layer="281" from-port="0" to-layer="282" to-port="0" />
		<edge from-layer="282" from-port="1" to-layer="283" to-port="1" />
		<edge from-layer="283" from-port="2" to-layer="284" to-port="0" />
		<edge from-layer="284" from-port="1" to-layer="287" to-port="0" />
		<edge from-layer="285" from-port="0" to-layer="286" to-port="0" />
		<edge from-layer="286" from-port="1" to-layer="287" to-port="1" />
		<edge from-layer="287" from-port="2" to-layer="290" to-port="0" />
		<edge from-layer="288" from-port="0" to-layer="289" to-port="0" />
		<edge from-layer="289" from-port="1" to-layer="290" to-port="1" />
		<edge from-layer="290" from-port="2" to-layer="291" to-port="0" />
		<edge from-layer="291" from-port="1" to-layer="293" to-port="0" />
		<edge from-layer="291" from-port="1" to-layer="308" to-port="0" />
		<edge from-layer="292" from-port="0" to-layer="293" to-port="1" />
		<edge from-layer="293" from-port="2" to-layer="296" to-port="0" />
		<edge from-layer="294" from-port="0" to-layer="295" to-port="0" />
		<edge from-layer="295" from-port="1" to-layer="296" to-port="1" />
		<edge from-layer="296" from-port="2" to-layer="299" to-port="0" />
		<edge from-layer="297" from-port="0" to-layer="298" to-port="0" />
		<edge from-layer="298" from-port="1" to-layer="299" to-port="1" />
		<edge from-layer="299" from-port="2" to-layer="300" to-port="0" />
		<edge from-layer="300" from-port="1" to-layer="303" to-port="0" />
		<edge from-layer="301" from-port="0" to-layer="302" to-port="0" />
		<edge from-layer="302" from-port="1" to-layer="303" to-port="1" />
		<edge from-layer="303" from-port="2" to-layer="306" to-port="0" />
		<edge from-layer="304" from-port="0" to-layer="305" to-port="0" />
		<edge from-layer="305" from-port="1" to-layer="306" to-port="1" />
		<edge from-layer="306" from-port="2" to-layer="307" to-port="0" />
		<edge from-layer="307" from-port="1" to-layer="308" to-port="1" />
		<edge from-layer="308" from-port="2" to-layer="311" to-port="0" />
		<edge from-layer="309" from-port="0" to-layer="310" to-port="0" />
		<edge from-layer="310" from-port="1" to-layer="311" to-port="1" />
		<edge from-layer="311" from-port="2" to-layer="314" to-port="0" />
		<edge from-layer="312" from-port="0" to-layer="313" to-port="0" />
		<edge from-layer="313" from-port="1" to-layer="314" to-port="1" />
		<edge from-layer="314" from-port="2" to-layer="352" to-port="1" />
		<edge from-layer="314" from-port="2" to-layer="317" to-port="0" />
		<edge from-layer="315" from-port="0" to-layer="316" to-port="0" />
		<edge from-layer="316" from-port="1" to-layer="317" to-port="1" />
		<edge from-layer="317" from-port="2" to-layer="320" to-port="0" />
		<edge from-layer="318" from-port="0" to-layer="319" to-port="0" />
		<edge from-layer="319" from-port="1" to-layer="320" to-port="1" />
		<edge from-layer="320" from-port="2" to-layer="321" to-port="0" />
		<edge from-layer="321" from-port="1" to-layer="324" to-port="0" />
		<edge from-layer="322" from-port="0" to-layer="323" to-port="0" />
		<edge from-layer="323" from-port="1" to-layer="324" to-port="1" />
		<edge from-layer="324" from-port="2" to-layer="327" to-port="0" />
		<edge from-layer="325" from-port="0" to-layer="326" to-port="0" />
		<edge from-layer="326" from-port="1" to-layer="327" to-port="1" />
		<edge from-layer="327" from-port="2" to-layer="328" to-port="0" />
		<edge from-layer="328" from-port="1" to-layer="330" to-port="0" />
		<edge from-layer="328" from-port="1" to-layer="345" to-port="0" />
		<edge from-layer="329" from-port="0" to-layer="330" to-port="1" />
		<edge from-layer="330" from-port="2" to-layer="333" to-port="0" />
		<edge from-layer="331" from-port="0" to-layer="332" to-port="0" />
		<edge from-layer="332" from-port="1" to-layer="333" to-port="1" />
		<edge from-layer="333" from-port="2" to-layer="336" to-port="0" />
		<edge from-layer="334" from-port="0" to-layer="335" to-port="0" />
		<edge from-layer="335" from-port="1" to-layer="336" to-port="1" />
		<edge from-layer="336" from-port="2" to-layer="337" to-port="0" />
		<edge from-layer="337" from-port="1" to-layer="340" to-port="0" />
		<edge from-layer="338" from-port="0" to-layer="339" to-port="0" />
		<edge from-layer="339" from-port="1" to-layer="340" to-port="1" />
		<edge from-layer="340" from-port="2" to-layer="343" to-port="0" />
		<edge from-layer="341" from-port="0" to-layer="342" to-port="0" />
		<edge from-layer="342" from-port="1" to-layer="343" to-port="1" />
		<edge from-layer="343" from-port="2" to-layer="344" to-port="0" />
		<edge from-layer="344" from-port="1" to-layer="345" to-port="1" />
		<edge from-layer="345" from-port="2" to-layer="348" to-port="0" />
		<edge from-layer="346" from-port="0" to-layer="347" to-port="0" />
		<edge from-layer="347" from-port="1" to-layer="348" to-port="1" />
		<edge from-layer="348" from-port="2" to-layer="351" to-port="0" />
		<edge from-layer="349" from-port="0" to-layer="350" to-port="0" />
		<edge from-layer="350" from-port="1" to-layer="351" to-port="1" />
		<edge from-layer="351" from-port="2" to-layer="352" to-port="0" />
		<edge from-layer="352" from-port="2" to-layer="355" to-port="0" />
		<edge from-layer="352" from-port="2" to-layer="390" to-port="1" />
		<edge from-layer="353" from-port="0" to-layer="354" to-port="0" />
		<edge from-layer="354" from-port="1" to-layer="355" to-port="1" />
		<edge from-layer="355" from-port="2" to-layer="358" to-port="0" />
		<edge from-layer="356" from-port="0" to-layer="357" to-port="0" />
		<edge from-layer="357" from-port="1" to-layer="358" to-port="1" />
		<edge from-layer="358" from-port="2" to-layer="359" to-port="0" />
		<edge from-layer="359" from-port="1" to-layer="362" to-port="0" />
		<edge from-layer="360" from-port="0" to-layer="361" to-port="0" />
		<edge from-layer="361" from-port="1" to-layer="362" to-port="1" />
		<edge from-layer="362" from-port="2" to-layer="365" to-port="0" />
		<edge from-layer="363" from-port="0" to-layer="364" to-port="0" />
		<edge from-layer="364" from-port="1" to-layer="365" to-port="1" />
		<edge from-layer="365" from-port="2" to-layer="366" to-port="0" />
		<edge from-layer="366" from-port="1" to-layer="383" to-port="0" />
		<edge from-layer="366" from-port="1" to-layer="368" to-port="0" />
		<edge from-layer="367" from-port="0" to-layer="368" to-port="1" />
		<edge from-layer="368" from-port="2" to-layer="371" to-port="0" />
		<edge from-layer="369" from-port="0" to-layer="370" to-port="0" />
		<edge from-layer="370" from-port="1" to-layer="371" to-port="1" />
		<edge from-layer="371" from-port="2" to-layer="374" to-port="0" />
		<edge from-layer="372" from-port="0" to-layer="373" to-port="0" />
		<edge from-layer="373" from-port="1" to-layer="374" to-port="1" />
		<edge from-layer="374" from-port="2" to-layer="375" to-port="0" />
		<edge from-layer="375" from-port="1" to-layer="378" to-port="0" />
		<edge from-layer="376" from-port="0" to-layer="377" to-port="0" />
		<edge from-layer="377" from-port="1" to-layer="378" to-port="1" />
		<edge from-layer="378" from-port="2" to-layer="381" to-port="0" />
		<edge from-layer="379" from-port="0" to-layer="380" to-port="0" />
		<edge from-layer="380" from-port="1" to-layer="381" to-port="1" />
		<edge from-layer="381" from-port="2" to-layer="382" to-port="0" />
		<edge from-layer="382" from-port="1" to-layer="383" to-port="1" />
		<edge from-layer="383" from-port="2" to-layer="386" to-port="0" />
		<edge from-layer="384" from-port="0" to-layer="385" to-port="0" />
		<edge from-layer="385" from-port="1" to-layer="386" to-port="1" />
		<edge from-layer="386" from-port="2" to-layer="389" to-port="0" />
		<edge from-layer="387" from-port="0" to-layer="388" to-port="0" />
		<edge from-layer="388" from-port="1" to-layer="389" to-port="1" />
		<edge from-layer="389" from-port="2" to-layer="390" to-port="0" />
		<edge from-layer="390" from-port="2" to-layer="393" to-port="0" />
		<edge from-layer="390" from-port="2" to-layer="428" to-port="1" />
		<edge from-layer="391" from-port="0" to-layer="392" to-port="0" />
		<edge from-layer="392" from-port="1" to-layer="393" to-port="1" />
		<edge from-layer="393" from-port="2" to-layer="396" to-port="0" />
		<edge from-layer="394" from-port="0" to-layer="395" to-port="0" />
		<edge from-layer="395" from-port="1" to-layer="396" to-port="1" />
		<edge from-layer="396" from-port="2" to-layer="397" to-port="0" />
		<edge from-layer="397" from-port="1" to-layer="400" to-port="0" />
		<edge from-layer="398" from-port="0" to-layer="399" to-port="0" />
		<edge from-layer="399" from-port="1" to-layer="400" to-port="1" />
		<edge from-layer="400" from-port="2" to-layer="403" to-port="0" />
		<edge from-layer="401" from-port="0" to-layer="402" to-port="0" />
		<edge from-layer="402" from-port="1" to-layer="403" to-port="1" />
		<edge from-layer="403" from-port="2" to-layer="404" to-port="0" />
		<edge from-layer="404" from-port="1" to-layer="406" to-port="0" />
		<edge from-layer="404" from-port="1" to-layer="421" to-port="0" />
		<edge from-layer="405" from-port="0" to-layer="406" to-port="1" />
		<edge from-layer="406" from-port="2" to-layer="409" to-port="0" />
		<edge from-layer="407" from-port="0" to-layer="408" to-port="0" />
		<edge from-layer="408" from-port="1" to-layer="409" to-port="1" />
		<edge from-layer="409" from-port="2" to-layer="412" to-port="0" />
		<edge from-layer="410" from-port="0" to-layer="411" to-port="0" />
		<edge from-layer="411" from-port="1" to-layer="412" to-port="1" />
		<edge from-layer="412" from-port="2" to-layer="413" to-port="0" />
		<edge from-layer="413" from-port="1" to-layer="416" to-port="0" />
		<edge from-layer="414" from-port="0" to-layer="415" to-port="0" />
		<edge from-layer="415" from-port="1" to-layer="416" to-port="1" />
		<edge from-layer="416" from-port="2" to-layer="419" to-port="0" />
		<edge from-layer="417" from-port="0" to-layer="418" to-port="0" />
		<edge from-layer="418" from-port="1" to-layer="419" to-port="1" />
		<edge from-layer="419" from-port="2" to-layer="420" to-port="0" />
		<edge from-layer="420" from-port="1" to-layer="421" to-port="1" />
		<edge from-layer="421" from-port="2" to-layer="424" to-port="0" />
		<edge from-layer="422" from-port="0" to-layer="423" to-port="0" />
		<edge from-layer="423" from-port="1" to-layer="424" to-port="1" />
		<edge from-layer="424" from-port="2" to-layer="427" to-port="0" />
		<edge from-layer="425" from-port="0" to-layer="426" to-port="0" />
		<edge from-layer="426" from-port="1" to-layer="427" to-port="1" />
		<edge from-layer="427" from-port="2" to-layer="428" to-port="0" />
		<edge from-layer="428" from-port="2" to-layer="431" to-port="0" />
		<edge from-layer="429" from-port="0" to-layer="430" to-port="0" />
		<edge from-layer="430" from-port="1" to-layer="431" to-port="1" />
		<edge from-layer="431" from-port="2" to-layer="434" to-port="0" />
		<edge from-layer="432" from-port="0" to-layer="433" to-port="0" />
		<edge from-layer="433" from-port="1" to-layer="434" to-port="1" />
		<edge from-layer="434" from-port="2" to-layer="435" to-port="0" />
		<edge from-layer="435" from-port="1" to-layer="438" to-port="0" />
		<edge from-layer="436" from-port="0" to-layer="437" to-port="0" />
		<edge from-layer="437" from-port="1" to-layer="438" to-port="1" />
		<edge from-layer="438" from-port="2" to-layer="441" to-port="0" />
		<edge from-layer="439" from-port="0" to-layer="440" to-port="0" />
		<edge from-layer="440" from-port="1" to-layer="441" to-port="1" />
		<edge from-layer="441" from-port="2" to-layer="442" to-port="0" />
		<edge from-layer="442" from-port="1" to-layer="444" to-port="0" />
		<edge from-layer="442" from-port="1" to-layer="459" to-port="0" />
		<edge from-layer="443" from-port="0" to-layer="444" to-port="1" />
		<edge from-layer="444" from-port="2" to-layer="447" to-port="0" />
		<edge from-layer="445" from-port="0" to-layer="446" to-port="0" />
		<edge from-layer="446" from-port="1" to-layer="447" to-port="1" />
		<edge from-layer="447" from-port="2" to-layer="450" to-port="0" />
		<edge from-layer="448" from-port="0" to-layer="449" to-port="0" />
		<edge from-layer="449" from-port="1" to-layer="450" to-port="1" />
		<edge from-layer="450" from-port="2" to-layer="451" to-port="0" />
		<edge from-layer="451" from-port="1" to-layer="454" to-port="0" />
		<edge from-layer="452" from-port="0" to-layer="453" to-port="0" />
		<edge from-layer="453" from-port="1" to-layer="454" to-port="1" />
		<edge from-layer="454" from-port="2" to-layer="457" to-port="0" />
		<edge from-layer="455" from-port="0" to-layer="456" to-port="0" />
		<edge from-layer="456" from-port="1" to-layer="457" to-port="1" />
		<edge from-layer="457" from-port="2" to-layer="458" to-port="0" />
		<edge from-layer="458" from-port="1" to-layer="459" to-port="1" />
		<edge from-layer="459" from-port="2" to-layer="462" to-port="0" />
		<edge from-layer="460" from-port="0" to-layer="461" to-port="0" />
		<edge from-layer="461" from-port="1" to-layer="462" to-port="1" />
		<edge from-layer="462" from-port="2" to-layer="465" to-port="0" />
		<edge from-layer="463" from-port="0" to-layer="464" to-port="0" />
		<edge from-layer="464" from-port="1" to-layer="465" to-port="1" />
		<edge from-layer="465" from-port="2" to-layer="468" to-port="0" />
		<edge from-layer="465" from-port="2" to-layer="503" to-port="1" />
		<edge from-layer="466" from-port="0" to-layer="467" to-port="0" />
		<edge from-layer="467" from-port="1" to-layer="468" to-port="1" />
		<edge from-layer="468" from-port="2" to-layer="471" to-port="0" />
		<edge from-layer="469" from-port="0" to-layer="470" to-port="0" />
		<edge from-layer="470" from-port="1" to-layer="471" to-port="1" />
		<edge from-layer="471" from-port="2" to-layer="472" to-port="0" />
		<edge from-layer="472" from-port="1" to-layer="475" to-port="0" />
		<edge from-layer="473" from-port="0" to-layer="474" to-port="0" />
		<edge from-layer="474" from-port="1" to-layer="475" to-port="1" />
		<edge from-layer="475" from-port="2" to-layer="478" to-port="0" />
		<edge from-layer="476" from-port="0" to-layer="477" to-port="0" />
		<edge from-layer="477" from-port="1" to-layer="478" to-port="1" />
		<edge from-layer="478" from-port="2" to-layer="479" to-port="0" />
		<edge from-layer="479" from-port="1" to-layer="481" to-port="0" />
		<edge from-layer="479" from-port="1" to-layer="496" to-port="0" />
		<edge from-layer="480" from-port="0" to-layer="481" to-port="1" />
		<edge from-layer="481" from-port="2" to-layer="484" to-port="0" />
		<edge from-layer="482" from-port="0" to-layer="483" to-port="0" />
		<edge from-layer="483" from-port="1" to-layer="484" to-port="1" />
		<edge from-layer="484" from-port="2" to-layer="487" to-port="0" />
		<edge from-layer="485" from-port="0" to-layer="486" to-port="0" />
		<edge from-layer="486" from-port="1" to-layer="487" to-port="1" />
		<edge from-layer="487" from-port="2" to-layer="488" to-port="0" />
		<edge from-layer="488" from-port="1" to-layer="491" to-port="0" />
		<edge from-layer="489" from-port="0" to-layer="490" to-port="0" />
		<edge from-layer="490" from-port="1" to-layer="491" to-port="1" />
		<edge from-layer="491" from-port="2" to-layer="494" to-port="0" />
		<edge from-layer="492" from-port="0" to-layer="493" to-port="0" />
		<edge from-layer="493" from-port="1" to-layer="494" to-port="1" />
		<edge from-layer="494" from-port="2" to-layer="495" to-port="0" />
		<edge from-layer="495" from-port="1" to-layer="496" to-port="1" />
		<edge from-layer="496" from-port="2" to-layer="499" to-port="0" />
		<edge from-layer="497" from-port="0" to-layer="498" to-port="0" />
		<edge from-layer="498" from-port="1" to-layer="499" to-port="1" />
		<edge from-layer="499" from-port="2" to-layer="502" to-port="0" />
		<edge from-layer="500" from-port="0" to-layer="501" to-port="0" />
		<edge from-layer="501" from-port="1" to-layer="502" to-port="1" />
		<edge from-layer="502" from-port="2" to-layer="503" to-port="0" />
		<edge from-layer="503" from-port="2" to-layer="506" to-port="0" />
		<edge from-layer="503" from-port="2" to-layer="541" to-port="1" />
		<edge from-layer="504" from-port="0" to-layer="505" to-port="0" />
		<edge from-layer="505" from-port="1" to-layer="506" to-port="1" />
		<edge from-layer="506" from-port="2" to-layer="509" to-port="0" />
		<edge from-layer="507" from-port="0" to-layer="508" to-port="0" />
		<edge from-layer="508" from-port="1" to-layer="509" to-port="1" />
		<edge from-layer="509" from-port="2" to-layer="510" to-port="0" />
		<edge from-layer="510" from-port="1" to-layer="513" to-port="0" />
		<edge from-layer="511" from-port="0" to-layer="512" to-port="0" />
		<edge from-layer="512" from-port="1" to-layer="513" to-port="1" />
		<edge from-layer="513" from-port="2" to-layer="516" to-port="0" />
		<edge from-layer="514" from-port="0" to-layer="515" to-port="0" />
		<edge from-layer="515" from-port="1" to-layer="516" to-port="1" />
		<edge from-layer="516" from-port="2" to-layer="517" to-port="0" />
		<edge from-layer="517" from-port="1" to-layer="534" to-port="0" />
		<edge from-layer="517" from-port="1" to-layer="519" to-port="0" />
		<edge from-layer="518" from-port="0" to-layer="519" to-port="1" />
		<edge from-layer="519" from-port="2" to-layer="522" to-port="0" />
		<edge from-layer="520" from-port="0" to-layer="521" to-port="0" />
		<edge from-layer="521" from-port="1" to-layer="522" to-port="1" />
		<edge from-layer="522" from-port="2" to-layer="525" to-port="0" />
		<edge from-layer="523" from-port="0" to-layer="524" to-port="0" />
		<edge from-layer="524" from-port="1" to-layer="525" to-port="1" />
		<edge from-layer="525" from-port="2" to-layer="526" to-port="0" />
		<edge from-layer="526" from-port="1" to-layer="529" to-port="0" />
		<edge from-layer="527" from-port="0" to-layer="528" to-port="0" />
		<edge from-layer="528" from-port="1" to-layer="529" to-port="1" />
		<edge from-layer="529" from-port="2" to-layer="532" to-port="0" />
		<edge from-layer="530" from-port="0" to-layer="531" to-port="0" />
		<edge from-layer="531" from-port="1" to-layer="532" to-port="1" />
		<edge from-layer="532" from-port="2" to-layer="533" to-port="0" />
		<edge from-layer="533" from-port="1" to-layer="534" to-port="1" />
		<edge from-layer="534" from-port="2" to-layer="537" to-port="0" />
		<edge from-layer="535" from-port="0" to-layer="536" to-port="0" />
		<edge from-layer="536" from-port="1" to-layer="537" to-port="1" />
		<edge from-layer="537" from-port="2" to-layer="540" to-port="0" />
		<edge from-layer="538" from-port="0" to-layer="539" to-port="0" />
		<edge from-layer="539" from-port="1" to-layer="540" to-port="1" />
		<edge from-layer="540" from-port="2" to-layer="541" to-port="0" />
		<edge from-layer="541" from-port="2" to-layer="542" to-port="0" />
	</edges>
</net>
